node {
  name: "global_step/Initializer/zeros"
  op: "Const"
  attr {
    key: "_class"
    value {
      list {
        s: "loc:@global_step"
      }
    }
  }
  attr {
    key: "_output_shapes"
    value {
      list {
        shape {
        }
      }
    }
  }
  attr {
    key: "dtype"
    value {
      type: DT_INT64
    }
  }
  attr {
    key: "value"
    value {
      tensor {
        dtype: DT_INT64
        tensor_shape {
        }
        int64_val: 0
      }
    }
  }
}
node {
  name: "global_step"
  op: "VariableV2"
  attr {
    key: "_class"
    value {
      list {
        s: "loc:@global_step"
      }
    }
  }
  attr {
    key: "_output_shapes"
    value {
      list {
        shape {
        }
      }
    }
  }
  attr {
    key: "container"
    value {
      s: ""
    }
  }
  attr {
    key: "dtype"
    value {
      type: DT_INT64
    }
  }
  attr {
    key: "shape"
    value {
      shape {
      }
    }
  }
  attr {
    key: "shared_name"
    value {
      s: ""
    }
  }
}
node {
  name: "global_step/Assign"
  op: "Assign"
  input: "global_step"
  input: "global_step/Initializer/zeros"
  attr {
    key: "T"
    value {
      type: DT_INT64
    }
  }
  attr {
    key: "_class"
    value {
      list {
        s: "loc:@global_step"
      }
    }
  }
  attr {
    key: "_output_shapes"
    value {
      list {
        shape {
        }
      }
    }
  }
  attr {
    key: "use_locking"
    value {
      b: true
    }
  }
  attr {
    key: "validate_shape"
    value {
      b: true
    }
  }
}
node {
  name: "global_step/read"
  op: "Identity"
  input: "global_step"
  attr {
    key: "T"
    value {
      type: DT_INT64
    }
  }
  attr {
    key: "_class"
    value {
      list {
        s: "loc:@global_step"
      }
    }
  }
  attr {
    key: "_output_shapes"
    value {
      list {
        shape {
        }
      }
    }
  }
}
node {
  name: "global_step/IsVariableInitialized"
  op: "IsVariableInitialized"
  input: "global_step"
  attr {
    key: "_class"
    value {
      list {
        s: "loc:@global_step"
      }
    }
  }
  attr {
    key: "_output_shapes"
    value {
      list {
        shape {
        }
      }
    }
  }
  attr {
    key: "dtype"
    value {
      type: DT_INT64
    }
  }
}
node {
  name: "global_step/cond/Switch"
  op: "Switch"
  input: "global_step/IsVariableInitialized"
  input: "global_step/IsVariableInitialized"
  attr {
    key: "T"
    value {
      type: DT_BOOL
    }
  }
  attr {
    key: "_output_shapes"
    value {
      list {
        shape {
        }
        shape {
        }
      }
    }
  }
}
node {
  name: "global_step/cond/switch_t"
  op: "Identity"
  input: "global_step/cond/Switch:1"
  attr {
    key: "T"
    value {
      type: DT_BOOL
    }
  }
  attr {
    key: "_output_shapes"
    value {
      list {
        shape {
        }
      }
    }
  }
}
node {
  name: "global_step/cond/switch_f"
  op: "Identity"
  input: "global_step/cond/Switch"
  attr {
    key: "T"
    value {
      type: DT_BOOL
    }
  }
  attr {
    key: "_output_shapes"
    value {
      list {
        shape {
        }
      }
    }
  }
}
node {
  name: "global_step/cond/pred_id"
  op: "Identity"
  input: "global_step/IsVariableInitialized"
  attr {
    key: "T"
    value {
      type: DT_BOOL
    }
  }
  attr {
    key: "_output_shapes"
    value {
      list {
        shape {
        }
      }
    }
  }
}
node {
  name: "global_step/cond/read"
  op: "Identity"
  input: "global_step/cond/read/Switch:1"
  attr {
    key: "T"
    value {
      type: DT_INT64
    }
  }
  attr {
    key: "_output_shapes"
    value {
      list {
        shape {
        }
      }
    }
  }
}
node {
  name: "global_step/cond/read/Switch"
  op: "RefSwitch"
  input: "global_step"
  input: "global_step/cond/pred_id"
  attr {
    key: "T"
    value {
      type: DT_INT64
    }
  }
  attr {
    key: "_class"
    value {
      list {
        s: "loc:@global_step"
      }
    }
  }
  attr {
    key: "_output_shapes"
    value {
      list {
        shape {
        }
        shape {
        }
      }
    }
  }
}
node {
  name: "global_step/cond/Switch_1"
  op: "Switch"
  input: "global_step/Initializer/zeros"
  input: "global_step/cond/pred_id"
  attr {
    key: "T"
    value {
      type: DT_INT64
    }
  }
  attr {
    key: "_class"
    value {
      list {
        s: "loc:@global_step"
      }
    }
  }
  attr {
    key: "_output_shapes"
    value {
      list {
        shape {
        }
        shape {
        }
      }
    }
  }
}
node {
  name: "global_step/cond/Merge"
  op: "Merge"
  input: "global_step/cond/Switch_1"
  input: "global_step/cond/read"
  attr {
    key: "N"
    value {
      i: 2
    }
  }
  attr {
    key: "T"
    value {
      type: DT_INT64
    }
  }
  attr {
    key: "_output_shapes"
    value {
      list {
        shape {
        }
        shape {
        }
      }
    }
  }
}
node {
  name: "global_step/add/y"
  op: "Const"
  attr {
    key: "_output_shapes"
    value {
      list {
        shape {
        }
      }
    }
  }
  attr {
    key: "dtype"
    value {
      type: DT_INT64
    }
  }
  attr {
    key: "value"
    value {
      tensor {
        dtype: DT_INT64
        tensor_shape {
        }
        int64_val: 0
      }
    }
  }
}
node {
  name: "global_step/add"
  op: "Add"
  input: "global_step/cond/Merge"
  input: "global_step/add/y"
  attr {
    key: "T"
    value {
      type: DT_INT64
    }
  }
  attr {
    key: "_output_shapes"
    value {
      list {
        shape {
        }
      }
    }
  }
}
node {
  name: "Const"
  op: "Const"
  device: "/device:CPU:0"
  attr {
    key: "_output_shapes"
    value {
      list {
        shape {
          dim {
            size: 1
          }
        }
      }
    }
  }
  attr {
    key: "dtype"
    value {
      type: DT_STRING
    }
  }
  attr {
    key: "value"
    value {
      tensor {
        dtype: DT_STRING
        tensor_shape {
          dim {
            size: 1
          }
        }
        string_val: "C:\\new_d\\coding\\tmp\\data\\mnist\\train-1of1"
      }
    }
  }
}
node {
  name: "flat_filenames/shape"
  op: "Const"
  device: "/device:CPU:0"
  attr {
    key: "_output_shapes"
    value {
      list {
        shape {
          dim {
            size: 1
          }
        }
      }
    }
  }
  attr {
    key: "dtype"
    value {
      type: DT_INT32
    }
  }
  attr {
    key: "value"
    value {
      tensor {
        dtype: DT_INT32
        tensor_shape {
          dim {
            size: 1
          }
        }
        int_val: -1
      }
    }
  }
}
node {
  name: "flat_filenames"
  op: "Reshape"
  input: "Const"
  input: "flat_filenames/shape"
  device: "/device:CPU:0"
  attr {
    key: "T"
    value {
      type: DT_STRING
    }
  }
  attr {
    key: "Tshape"
    value {
      type: DT_INT32
    }
  }
  attr {
    key: "_output_shapes"
    value {
      list {
        shape {
          dim {
            size: 1
          }
        }
      }
    }
  }
}
node {
  name: "TensorSliceDataset"
  op: "TensorSliceDataset"
  input: "flat_filenames"
  device: "/device:CPU:0"
  attr {
    key: "Toutput_types"
    value {
      list {
        type: DT_STRING
      }
    }
  }
  attr {
    key: "_output_shapes"
    value {
      list {
        shape {
        }
      }
    }
  }
  attr {
    key: "output_shapes"
    value {
      list {
        shape {
        }
      }
    }
  }
}
node {
  name: "cycle_length"
  op: "Const"
  device: "/device:CPU:0"
  attr {
    key: "_output_shapes"
    value {
      list {
        shape {
        }
      }
    }
  }
  attr {
    key: "dtype"
    value {
      type: DT_INT64
    }
  }
  attr {
    key: "value"
    value {
      tensor {
        dtype: DT_INT64
        tensor_shape {
        }
        int64_val: 4
      }
    }
  }
}
node {
  name: "block_length"
  op: "Const"
  device: "/device:CPU:0"
  attr {
    key: "_output_shapes"
    value {
      list {
        shape {
        }
      }
    }
  }
  attr {
    key: "dtype"
    value {
      type: DT_INT64
    }
  }
  attr {
    key: "value"
    value {
      tensor {
        dtype: DT_INT64
        tensor_shape {
        }
        int64_val: 1
      }
    }
  }
}
node {
  name: "sloppy"
  op: "Const"
  device: "/device:CPU:0"
  attr {
    key: "_output_shapes"
    value {
      list {
        shape {
        }
      }
    }
  }
  attr {
    key: "dtype"
    value {
      type: DT_BOOL
    }
  }
  attr {
    key: "value"
    value {
      tensor {
        dtype: DT_BOOL
        tensor_shape {
        }
        bool_val: false
      }
    }
  }
}
node {
  name: "buffer_output_elements"
  op: "Const"
  device: "/device:CPU:0"
  attr {
    key: "_output_shapes"
    value {
      list {
        shape {
        }
      }
    }
  }
  attr {
    key: "dtype"
    value {
      type: DT_INT64
    }
  }
  attr {
    key: "value"
    value {
      tensor {
        dtype: DT_INT64
        tensor_shape {
        }
        int64_val: 2
      }
    }
  }
}
node {
  name: "prefetch_input_elements"
  op: "Const"
  device: "/device:CPU:0"
  attr {
    key: "_output_shapes"
    value {
      list {
        shape {
        }
      }
    }
  }
  attr {
    key: "dtype"
    value {
      type: DT_INT64
    }
  }
  attr {
    key: "value"
    value {
      tensor {
        dtype: DT_INT64
        tensor_shape {
        }
        int64_val: 8
      }
    }
  }
}
node {
  name: "ExperimentalParallelInterleaveDataset"
  op: "ExperimentalParallelInterleaveDataset"
  input: "TensorSliceDataset"
  input: "cycle_length"
  input: "block_length"
  input: "sloppy"
  input: "buffer_output_elements"
  input: "prefetch_input_elements"
  device: "/device:CPU:0"
  attr {
    key: "Targuments"
    value {
      list {
      }
    }
  }
  attr {
    key: "_output_shapes"
    value {
      list {
        shape {
        }
      }
    }
  }
  attr {
    key: "f"
    value {
      func {
        name: "__inference_tf_data_experimental_parallel_interleave_read_one_file_51827"
      }
    }
  }
  attr {
    key: "output_shapes"
    value {
      list {
        shape {
        }
      }
    }
  }
  attr {
    key: "output_types"
    value {
      list {
        type: DT_STRING
      }
    }
  }
}
node {
  name: "buffer_size"
  op: "Const"
  device: "/device:CPU:0"
  attr {
    key: "_output_shapes"
    value {
      list {
        shape {
        }
      }
    }
  }
  attr {
    key: "dtype"
    value {
      type: DT_INT64
    }
  }
  attr {
    key: "value"
    value {
      tensor {
        dtype: DT_INT64
        tensor_shape {
        }
        int64_val: 640
      }
    }
  }
}
node {
  name: "PrefetchDataset"
  op: "PrefetchDataset"
  input: "ExperimentalParallelInterleaveDataset"
  input: "buffer_size"
  device: "/device:CPU:0"
  attr {
    key: "_output_shapes"
    value {
      list {
        shape {
        }
      }
    }
  }
  attr {
    key: "output_shapes"
    value {
      list {
        shape {
        }
      }
    }
  }
  attr {
    key: "output_types"
    value {
      list {
        type: DT_STRING
      }
    }
  }
  attr {
    key: "slack_period"
    value {
      i: 0
    }
  }
}
node {
  name: "buffer_size_1"
  op: "Const"
  device: "/device:CPU:0"
  attr {
    key: "_output_shapes"
    value {
      list {
        shape {
        }
      }
    }
  }
  attr {
    key: "dtype"
    value {
      type: DT_INT64
    }
  }
  attr {
    key: "value"
    value {
      tensor {
        dtype: DT_INT64
        tensor_shape {
        }
        int64_val: 640
      }
    }
  }
}
node {
  name: "seed"
  op: "Const"
  device: "/device:CPU:0"
  attr {
    key: "_output_shapes"
    value {
      list {
        shape {
        }
      }
    }
  }
  attr {
    key: "dtype"
    value {
      type: DT_INT64
    }
  }
  attr {
    key: "value"
    value {
      tensor {
        dtype: DT_INT64
        tensor_shape {
        }
        int64_val: 0
      }
    }
  }
}
node {
  name: "seed2"
  op: "Const"
  device: "/device:CPU:0"
  attr {
    key: "_output_shapes"
    value {
      list {
        shape {
        }
      }
    }
  }
  attr {
    key: "dtype"
    value {
      type: DT_INT64
    }
  }
  attr {
    key: "value"
    value {
      tensor {
        dtype: DT_INT64
        tensor_shape {
        }
        int64_val: 0
      }
    }
  }
}
node {
  name: "ShuffleDataset"
  op: "ShuffleDataset"
  input: "PrefetchDataset"
  input: "buffer_size_1"
  input: "seed"
  input: "seed2"
  device: "/device:CPU:0"
  attr {
    key: "_output_shapes"
    value {
      list {
        shape {
        }
      }
    }
  }
  attr {
    key: "output_shapes"
    value {
      list {
        shape {
        }
      }
    }
  }
  attr {
    key: "output_types"
    value {
      list {
        type: DT_STRING
      }
    }
  }
  attr {
    key: "reshuffle_each_iteration"
    value {
      b: true
    }
  }
}
node {
  name: "MapDataset"
  op: "MapDataset"
  input: "ShuffleDataset"
  device: "/device:CPU:0"
  attr {
    key: "Targuments"
    value {
      list {
      }
    }
  }
  attr {
    key: "_output_shapes"
    value {
      list {
        shape {
        }
      }
    }
  }
  attr {
    key: "f"
    value {
      func {
        name: "__inference_Dataset_map_fn_51853"
      }
    }
  }
  attr {
    key: "output_shapes"
    value {
      list {
        shape {
          dim {
            size: -1
          }
          dim {
            size: -1
          }
          dim {
            size: 3
          }
        }
        shape {
        }
      }
    }
  }
  attr {
    key: "output_types"
    value {
      list {
        type: DT_FLOAT
        type: DT_INT32
      }
    }
  }
  attr {
    key: "preserve_cardinality"
    value {
      b: false
    }
  }
  attr {
    key: "use_inter_op_parallelism"
    value {
      b: true
    }
  }
}
node {
  name: "MapDataset_1"
  op: "MapDataset"
  input: "MapDataset"
  device: "/device:CPU:0"
  attr {
    key: "Targuments"
    value {
      list {
      }
    }
  }
  attr {
    key: "_output_shapes"
    value {
      list {
        shape {
        }
      }
    }
  }
  attr {
    key: "f"
    value {
      func {
        name: "__inference_Dataset_map_fn_52084"
      }
    }
  }
  attr {
    key: "output_shapes"
    value {
      list {
        shape {
          dim {
            size: 28
          }
          dim {
            size: 28
          }
          dim {
            size: 3
          }
        }
        shape {
        }
      }
    }
  }
  attr {
    key: "output_types"
    value {
      list {
        type: DT_FLOAT
        type: DT_INT32
      }
    }
  }
  attr {
    key: "preserve_cardinality"
    value {
      b: false
    }
  }
  attr {
    key: "use_inter_op_parallelism"
    value {
      b: true
    }
  }
}
node {
  name: "MapDataset_2"
  op: "MapDataset"
  input: "MapDataset_1"
  device: "/device:CPU:0"
  attr {
    key: "Targuments"
    value {
      list {
      }
    }
  }
  attr {
    key: "_output_shapes"
    value {
      list {
        shape {
        }
      }
    }
  }
  attr {
    key: "f"
    value {
      func {
        name: "__inference_Dataset_map_fn_52093"
      }
    }
  }
  attr {
    key: "output_shapes"
    value {
      list {
        shape {
          dim {
            size: 28
          }
          dim {
            size: 28
          }
          dim {
            size: 3
          }
        }
        shape {
        }
      }
    }
  }
  attr {
    key: "output_types"
    value {
      list {
        type: DT_FLOAT
        type: DT_INT32
      }
    }
  }
  attr {
    key: "preserve_cardinality"
    value {
      b: false
    }
  }
  attr {
    key: "use_inter_op_parallelism"
    value {
      b: true
    }
  }
}
node {
  name: "count"
  op: "Const"
  device: "/device:CPU:0"
  attr {
    key: "_output_shapes"
    value {
      list {
        shape {
        }
      }
    }
  }
  attr {
    key: "dtype"
    value {
      type: DT_INT64
    }
  }
  attr {
    key: "value"
    value {
      tensor {
        dtype: DT_INT64
        tensor_shape {
        }
        int64_val: -1
      }
    }
  }
}
node {
  name: "RepeatDataset"
  op: "RepeatDataset"
  input: "MapDataset_2"
  input: "count"
  device: "/device:CPU:0"
  attr {
    key: "_output_shapes"
    value {
      list {
        shape {
        }
      }
    }
  }
  attr {
    key: "output_shapes"
    value {
      list {
        shape {
          dim {
            size: 28
          }
          dim {
            size: 28
          }
          dim {
            size: 3
          }
        }
        shape {
        }
      }
    }
  }
  attr {
    key: "output_types"
    value {
      list {
        type: DT_FLOAT
        type: DT_INT32
      }
    }
  }
}
node {
  name: "batch_size"
  op: "Const"
  device: "/device:CPU:0"
  attr {
    key: "_output_shapes"
    value {
      list {
        shape {
        }
      }
    }
  }
  attr {
    key: "dtype"
    value {
      type: DT_INT64
    }
  }
  attr {
    key: "value"
    value {
      tensor {
        dtype: DT_INT64
        tensor_shape {
        }
        int64_val: 128
      }
    }
  }
}
node {
  name: "drop_remainder"
  op: "Const"
  device: "/device:CPU:0"
  attr {
    key: "_output_shapes"
    value {
      list {
        shape {
        }
      }
    }
  }
  attr {
    key: "dtype"
    value {
      type: DT_BOOL
    }
  }
  attr {
    key: "value"
    value {
      tensor {
        dtype: DT_BOOL
        tensor_shape {
        }
        bool_val: false
      }
    }
  }
}
node {
  name: "BatchDatasetV2"
  op: "BatchDatasetV2"
  input: "RepeatDataset"
  input: "batch_size"
  input: "drop_remainder"
  device: "/device:CPU:0"
  attr {
    key: "_output_shapes"
    value {
      list {
        shape {
        }
      }
    }
  }
  attr {
    key: "output_shapes"
    value {
      list {
        shape {
          dim {
            size: -1
          }
          dim {
            size: 28
          }
          dim {
            size: 28
          }
          dim {
            size: 3
          }
        }
        shape {
          dim {
            size: -1
          }
        }
      }
    }
  }
  attr {
    key: "output_types"
    value {
      list {
        type: DT_FLOAT
        type: DT_INT32
      }
    }
  }
  attr {
    key: "parallel_copy"
    value {
      b: false
    }
  }
}
node {
  name: "OneShotIterator"
  op: "OneShotIterator"
  device: "/device:CPU:0"
  attr {
    key: "_output_shapes"
    value {
      list {
        shape {
        }
      }
    }
  }
  attr {
    key: "container"
    value {
      s: ""
    }
  }
  attr {
    key: "dataset_factory"
    value {
      func {
        name: "_make_dataset_RM4gLU0yraY"
      }
    }
  }
  attr {
    key: "output_shapes"
    value {
      list {
        shape {
          dim {
            size: -1
          }
          dim {
            size: 28
          }
          dim {
            size: 28
          }
          dim {
            size: 3
          }
        }
        shape {
          dim {
            size: -1
          }
        }
      }
    }
  }
  attr {
    key: "output_types"
    value {
      list {
        type: DT_FLOAT
        type: DT_INT32
      }
    }
  }
  attr {
    key: "shared_name"
    value {
      s: ""
    }
  }
}
node {
  name: "IteratorToStringHandle"
  op: "IteratorToStringHandle"
  input: "OneShotIterator"
  device: "/device:CPU:0"
  attr {
    key: "_output_shapes"
    value {
      list {
        shape {
        }
      }
    }
  }
}
node {
  name: "IteratorGetNext"
  op: "IteratorGetNext"
  input: "OneShotIterator"
  device: "/device:CPU:0"
  attr {
    key: "_output_shapes"
    value {
      list {
        shape {
          dim {
            size: -1
          }
          dim {
            size: 28
          }
          dim {
            size: 28
          }
          dim {
            size: 3
          }
        }
        shape {
          dim {
            size: -1
          }
        }
      }
    }
  }
  attr {
    key: "output_shapes"
    value {
      list {
        shape {
          dim {
            size: -1
          }
          dim {
            size: 28
          }
          dim {
            size: 28
          }
          dim {
            size: 3
          }
        }
        shape {
          dim {
            size: -1
          }
        }
      }
    }
  }
  attr {
    key: "output_types"
    value {
      list {
        type: DT_FLOAT
        type: DT_INT32
      }
    }
  }
}
node {
  name: "Const_1"
  op: "Const"
  device: "/device:GPU:0"
  attr {
    key: "_output_shapes"
    value {
      list {
        shape {
        }
      }
    }
  }
  attr {
    key: "dtype"
    value {
      type: DT_FLOAT
    }
  }
  attr {
    key: "value"
    value {
      tensor {
        dtype: DT_FLOAT
        tensor_shape {
        }
        float_val: 0.0
      }
    }
  }
}
node {
  name: "Const_2"
  op: "Const"
  device: "/device:GPU:0"
  attr {
    key: "_output_shapes"
    value {
      list {
        shape {
        }
      }
    }
  }
  attr {
    key: "dtype"
    value {
      type: DT_FLOAT
    }
  }
  attr {
    key: "value"
    value {
      tensor {
        dtype: DT_FLOAT
        tensor_shape {
        }
        float_val: 0.0010000000474974513
      }
    }
  }
}
node {
  name: "lenet/standardize_images/Mean/reduction_indices"
  op: "Const"
  device: "/device:GPU:0"
  attr {
    key: "_output_shapes"
    value {
      list {
        shape {
          dim {
            size: 3
          }
        }
      }
    }
  }
  attr {
    key: "dtype"
    value {
      type: DT_INT32
    }
  }
  attr {
    key: "value"
    value {
      tensor {
        dtype: DT_INT32
        tensor_shape {
          dim {
            size: 3
          }
        }
        tensor_content: "\001\000\000\000\002\000\000\000\003\000\000\000"
      }
    }
  }
}
node {
  name: "lenet/standardize_images/Mean"
  op: "Mean"
  input: "IteratorGetNext"
  input: "lenet/standardize_images/Mean/reduction_indices"
  device: "/device:GPU:0"
  attr {
    key: "T"
    value {
      type: DT_FLOAT
    }
  }
  attr {
    key: "Tidx"
    value {
      type: DT_INT32
    }
  }
  attr {
    key: "_output_shapes"
    value {
      list {
        shape {
          dim {
            size: -1
          }
          dim {
            size: 1
          }
          dim {
            size: 1
          }
          dim {
            size: 1
          }
        }
      }
    }
  }
  attr {
    key: "keep_dims"
    value {
      b: true
    }
  }
}
node {
  name: "lenet/standardize_images/sub"
  op: "Sub"
  input: "IteratorGetNext"
  input: "lenet/standardize_images/Mean"
  device: "/device:GPU:0"
  attr {
    key: "T"
    value {
      type: DT_FLOAT
    }
  }
  attr {
    key: "_output_shapes"
    value {
      list {
        shape {
          dim {
            size: -1
          }
          dim {
            size: 28
          }
          dim {
            size: 28
          }
          dim {
            size: 3
          }
        }
      }
    }
  }
}
node {
  name: "lenet/standardize_images/Square"
  op: "Square"
  input: "lenet/standardize_images/sub"
  device: "/device:GPU:0"
  attr {
    key: "T"
    value {
      type: DT_FLOAT
    }
  }
  attr {
    key: "_output_shapes"
    value {
      list {
        shape {
          dim {
            size: -1
          }
          dim {
            size: 28
          }
          dim {
            size: 28
          }
          dim {
            size: 3
          }
        }
      }
    }
  }
}
node {
  name: "lenet/standardize_images/Mean_1/reduction_indices"
  op: "Const"
  device: "/device:GPU:0"
  attr {
    key: "_output_shapes"
    value {
      list {
        shape {
          dim {
            size: 3
          }
        }
      }
    }
  }
  attr {
    key: "dtype"
    value {
      type: DT_INT32
    }
  }
  attr {
    key: "value"
    value {
      tensor {
        dtype: DT_INT32
        tensor_shape {
          dim {
            size: 3
          }
        }
        tensor_content: "\001\000\000\000\002\000\000\000\003\000\000\000"
      }
    }
  }
}
node {
  name: "lenet/standardize_images/Mean_1"
  op: "Mean"
  input: "lenet/standardize_images/Square"
  input: "lenet/standardize_images/Mean_1/reduction_indices"
  device: "/device:GPU:0"
  attr {
    key: "T"
    value {
      type: DT_FLOAT
    }
  }
  attr {
    key: "Tidx"
    value {
      type: DT_INT32
    }
  }
  attr {
    key: "_output_shapes"
    value {
      list {
        shape {
          dim {
            size: -1
          }
          dim {
            size: 1
          }
          dim {
            size: 1
          }
          dim {
            size: 1
          }
        }
      }
    }
  }
  attr {
    key: "keep_dims"
    value {
      b: true
    }
  }
}
node {
  name: "lenet/standardize_images/Shape"
  op: "Shape"
  input: "IteratorGetNext"
  device: "/device:GPU:0"
  attr {
    key: "T"
    value {
      type: DT_FLOAT
    }
  }
  attr {
    key: "_output_shapes"
    value {
      list {
        shape {
          dim {
            size: 4
          }
        }
      }
    }
  }
  attr {
    key: "out_type"
    value {
      type: DT_INT32
    }
  }
}
node {
  name: "lenet/standardize_images/strided_slice/stack"
  op: "Const"
  device: "/device:GPU:0"
  attr {
    key: "_output_shapes"
    value {
      list {
        shape {
          dim {
            size: 1
          }
        }
      }
    }
  }
  attr {
    key: "dtype"
    value {
      type: DT_INT32
    }
  }
  attr {
    key: "value"
    value {
      tensor {
        dtype: DT_INT32
        tensor_shape {
          dim {
            size: 1
          }
        }
        int_val: 0
      }
    }
  }
}
node {
  name: "lenet/standardize_images/strided_slice/stack_1"
  op: "Const"
  device: "/device:GPU:0"
  attr {
    key: "_output_shapes"
    value {
      list {
        shape {
          dim {
            size: 1
          }
        }
      }
    }
  }
  attr {
    key: "dtype"
    value {
      type: DT_INT32
    }
  }
  attr {
    key: "value"
    value {
      tensor {
        dtype: DT_INT32
        tensor_shape {
          dim {
            size: 1
          }
        }
        int_val: 1
      }
    }
  }
}
node {
  name: "lenet/standardize_images/strided_slice/stack_2"
  op: "Const"
  device: "/device:GPU:0"
  attr {
    key: "_output_shapes"
    value {
      list {
        shape {
          dim {
            size: 1
          }
        }
      }
    }
  }
  attr {
    key: "dtype"
    value {
      type: DT_INT32
    }
  }
  attr {
    key: "value"
    value {
      tensor {
        dtype: DT_INT32
        tensor_shape {
          dim {
            size: 1
          }
        }
        int_val: 1
      }
    }
  }
}
node {
  name: "lenet/standardize_images/strided_slice"
  op: "StridedSlice"
  input: "lenet/standardize_images/Shape"
  input: "lenet/standardize_images/strided_slice/stack"
  input: "lenet/standardize_images/strided_slice/stack_1"
  input: "lenet/standardize_images/strided_slice/stack_2"
  device: "/device:GPU:0"
  attr {
    key: "Index"
    value {
      type: DT_INT32
    }
  }
  attr {
    key: "T"
    value {
      type: DT_INT32
    }
  }
  attr {
    key: "_output_shapes"
    value {
      list {
        shape {
        }
      }
    }
  }
  attr {
    key: "begin_mask"
    value {
      i: 0
    }
  }
  attr {
    key: "ellipsis_mask"
    value {
      i: 0
    }
  }
  attr {
    key: "end_mask"
    value {
      i: 0
    }
  }
  attr {
    key: "new_axis_mask"
    value {
      i: 0
    }
  }
  attr {
    key: "shrink_axis_mask"
    value {
      i: 1
    }
  }
}
node {
  name: "lenet/standardize_images/ToFloat/x"
  op: "Const"
  device: "/device:GPU:0"
  attr {
    key: "_output_shapes"
    value {
      list {
        shape {
        }
      }
    }
  }
  attr {
    key: "dtype"
    value {
      type: DT_INT32
    }
  }
  attr {
    key: "value"
    value {
      tensor {
        dtype: DT_INT32
        tensor_shape {
        }
        int_val: 2352
      }
    }
  }
}
node {
  name: "lenet/standardize_images/ToFloat"
  op: "Cast"
  input: "lenet/standardize_images/ToFloat/x"
  device: "/device:GPU:0"
  attr {
    key: "DstT"
    value {
      type: DT_FLOAT
    }
  }
  attr {
    key: "SrcT"
    value {
      type: DT_INT32
    }
  }
  attr {
    key: "Truncate"
    value {
      b: false
    }
  }
  attr {
    key: "_output_shapes"
    value {
      list {
        shape {
        }
      }
    }
  }
}
node {
  name: "lenet/standardize_images/sub_1"
  op: "Sub"
  input: "IteratorGetNext"
  input: "lenet/standardize_images/Mean"
  device: "/device:GPU:0"
  attr {
    key: "T"
    value {
      type: DT_FLOAT
    }
  }
  attr {
    key: "_output_shapes"
    value {
      list {
        shape {
          dim {
            size: -1
          }
          dim {
            size: 28
          }
          dim {
            size: 28
          }
          dim {
            size: 3
          }
        }
      }
    }
  }
}
node {
  name: "lenet/standardize_images/Sqrt"
  op: "Sqrt"
  input: "lenet/standardize_images/Mean_1"
  device: "/device:GPU:0"
  attr {
    key: "T"
    value {
      type: DT_FLOAT
    }
  }
  attr {
    key: "_output_shapes"
    value {
      list {
        shape {
          dim {
            size: -1
          }
          dim {
            size: 1
          }
          dim {
            size: 1
          }
          dim {
            size: 1
          }
        }
      }
    }
  }
}
node {
  name: "lenet/standardize_images/Rsqrt"
  op: "Rsqrt"
  input: "lenet/standardize_images/ToFloat"
  device: "/device:GPU:0"
  attr {
    key: "T"
    value {
      type: DT_FLOAT
    }
  }
  attr {
    key: "_output_shapes"
    value {
      list {
        shape {
        }
      }
    }
  }
}
node {
  name: "lenet/standardize_images/Maximum"
  op: "Maximum"
  input: "lenet/standardize_images/Sqrt"
  input: "lenet/standardize_images/Rsqrt"
  device: "/device:GPU:0"
  attr {
    key: "T"
    value {
      type: DT_FLOAT
    }
  }
  attr {
    key: "_output_shapes"
    value {
      list {
        shape {
          dim {
            size: -1
          }
          dim {
            size: 1
          }
          dim {
            size: 1
          }
          dim {
            size: 1
          }
        }
      }
    }
  }
}
node {
  name: "lenet/standardize_images/truediv"
  op: "RealDiv"
  input: "lenet/standardize_images/sub_1"
  input: "lenet/standardize_images/Maximum"
  device: "/device:GPU:0"
  attr {
    key: "T"
    value {
      type: DT_FLOAT
    }
  }
  attr {
    key: "_output_shapes"
    value {
      list {
        shape {
          dim {
            size: -1
          }
          dim {
            size: 28
          }
          dim {
            size: 28
          }
          dim {
            size: 3
          }
        }
      }
    }
  }
}
node {
  name: "lenet/Reshape/shape"
  op: "Const"
  device: "/device:GPU:0"
  attr {
    key: "_output_shapes"
    value {
      list {
        shape {
          dim {
            size: 4
          }
        }
      }
    }
  }
  attr {
    key: "dtype"
    value {
      type: DT_INT32
    }
  }
  attr {
    key: "value"
    value {
      tensor {
        dtype: DT_INT32
        tensor_shape {
          dim {
            size: 4
          }
        }
        tensor_content: "\200\000\000\000\034\000\000\000\034\000\000\000\003\000\000\000"
      }
    }
  }
}
node {
  name: "lenet/Reshape"
  op: "Reshape"
  input: "lenet/standardize_images/truediv"
  input: "lenet/Reshape/shape"
  device: "/device:GPU:0"
  attr {
    key: "T"
    value {
      type: DT_FLOAT
    }
  }
  attr {
    key: "Tshape"
    value {
      type: DT_INT32
    }
  }
  attr {
    key: "_output_shapes"
    value {
      list {
        shape {
          dim {
            size: 128
          }
          dim {
            size: 28
          }
          dim {
            size: 28
          }
          dim {
            size: 3
          }
        }
      }
    }
  }
}
node {
  name: "lenet/Variable/Initializer/Const"
  op: "Const"
  attr {
    key: "_class"
    value {
      list {
        s: "loc:@lenet/Variable"
      }
    }
  }
  attr {
    key: "_output_shapes"
    value {
      list {
        shape {
          dim {
            size: 6
          }
        }
      }
    }
  }
  attr {
    key: "dtype"
    value {
      type: DT_FLOAT
    }
  }
  attr {
    key: "value"
    value {
      tensor {
        dtype: DT_FLOAT
        tensor_shape {
          dim {
            size: 6
          }
        }
        float_val: 0.10000000149011612
      }
    }
  }
}
node {
  name: "lenet/Variable"
  op: "VariableV2"
  device: "/device:GPU:0"
  attr {
    key: "_class"
    value {
      list {
        s: "loc:@lenet/Variable"
      }
    }
  }
  attr {
    key: "_output_shapes"
    value {
      list {
        shape {
          dim {
            size: 6
          }
        }
      }
    }
  }
  attr {
    key: "container"
    value {
      s: ""
    }
  }
  attr {
    key: "dtype"
    value {
      type: DT_FLOAT
    }
  }
  attr {
    key: "shape"
    value {
      shape {
        dim {
          size: 6
        }
      }
    }
  }
  attr {
    key: "shared_name"
    value {
      s: ""
    }
  }
}
node {
  name: "lenet/Variable/Assign"
  op: "Assign"
  input: "lenet/Variable"
  input: "lenet/Variable/Initializer/Const"
  device: "/device:GPU:0"
  attr {
    key: "T"
    value {
      type: DT_FLOAT
    }
  }
  attr {
    key: "_class"
    value {
      list {
        s: "loc:@lenet/Variable"
      }
    }
  }
  attr {
    key: "_output_shapes"
    value {
      list {
        shape {
          dim {
            size: 6
          }
        }
      }
    }
  }
  attr {
    key: "use_locking"
    value {
      b: true
    }
  }
  attr {
    key: "validate_shape"
    value {
      b: true
    }
  }
}
node {
  name: "lenet/Variable/read"
  op: "Identity"
  input: "lenet/Variable"
  device: "/device:GPU:0"
  attr {
    key: "T"
    value {
      type: DT_FLOAT
    }
  }
  attr {
    key: "_class"
    value {
      list {
        s: "loc:@lenet/Variable"
      }
    }
  }
  attr {
    key: "_output_shapes"
    value {
      list {
        shape {
          dim {
            size: 6
          }
        }
      }
    }
  }
}
node {
  name: "lenet/conv1/DW/Initializer/truncated_normal/shape"
  op: "Const"
  attr {
    key: "_class"
    value {
      list {
        s: "loc:@lenet/conv1/DW"
      }
    }
  }
  attr {
    key: "_output_shapes"
    value {
      list {
        shape {
          dim {
            size: 4
          }
        }
      }
    }
  }
  attr {
    key: "dtype"
    value {
      type: DT_INT32
    }
  }
  attr {
    key: "value"
    value {
      tensor {
        dtype: DT_INT32
        tensor_shape {
          dim {
            size: 4
          }
        }
        tensor_content: "\005\000\000\000\005\000\000\000\003\000\000\000\006\000\000\000"
      }
    }
  }
}
node {
  name: "lenet/conv1/DW/Initializer/truncated_normal/mean"
  op: "Const"
  attr {
    key: "_class"
    value {
      list {
        s: "loc:@lenet/conv1/DW"
      }
    }
  }
  attr {
    key: "_output_shapes"
    value {
      list {
        shape {
        }
      }
    }
  }
  attr {
    key: "dtype"
    value {
      type: DT_FLOAT
    }
  }
  attr {
    key: "value"
    value {
      tensor {
        dtype: DT_FLOAT
        tensor_shape {
        }
        float_val: 0.0
      }
    }
  }
}
node {
  name: "lenet/conv1/DW/Initializer/truncated_normal/stddev"
  op: "Const"
  attr {
    key: "_class"
    value {
      list {
        s: "loc:@lenet/conv1/DW"
      }
    }
  }
  attr {
    key: "_output_shapes"
    value {
      list {
        shape {
        }
      }
    }
  }
  attr {
    key: "dtype"
    value {
      type: DT_FLOAT
    }
  }
  attr {
    key: "value"
    value {
      tensor {
        dtype: DT_FLOAT
        tensor_shape {
        }
        float_val: 0.10718298703432083
      }
    }
  }
}
node {
  name: "lenet/conv1/DW/Initializer/truncated_normal/TruncatedNormal"
  op: "TruncatedNormal"
  input: "lenet/conv1/DW/Initializer/truncated_normal/shape"
  attr {
    key: "T"
    value {
      type: DT_INT32
    }
  }
  attr {
    key: "_class"
    value {
      list {
        s: "loc:@lenet/conv1/DW"
      }
    }
  }
  attr {
    key: "_output_shapes"
    value {
      list {
        shape {
          dim {
            size: 5
          }
          dim {
            size: 5
          }
          dim {
            size: 3
          }
          dim {
            size: 6
          }
        }
      }
    }
  }
  attr {
    key: "dtype"
    value {
      type: DT_FLOAT
    }
  }
  attr {
    key: "seed"
    value {
      i: 0
    }
  }
  attr {
    key: "seed2"
    value {
      i: 0
    }
  }
}
node {
  name: "lenet/conv1/DW/Initializer/truncated_normal/mul"
  op: "Mul"
  input: "lenet/conv1/DW/Initializer/truncated_normal/TruncatedNormal"
  input: "lenet/conv1/DW/Initializer/truncated_normal/stddev"
  attr {
    key: "T"
    value {
      type: DT_FLOAT
    }
  }
  attr {
    key: "_class"
    value {
      list {
        s: "loc:@lenet/conv1/DW"
      }
    }
  }
  attr {
    key: "_output_shapes"
    value {
      list {
        shape {
          dim {
            size: 5
          }
          dim {
            size: 5
          }
          dim {
            size: 3
          }
          dim {
            size: 6
          }
        }
      }
    }
  }
}
node {
  name: "lenet/conv1/DW/Initializer/truncated_normal"
  op: "Add"
  input: "lenet/conv1/DW/Initializer/truncated_normal/mul"
  input: "lenet/conv1/DW/Initializer/truncated_normal/mean"
  attr {
    key: "T"
    value {
      type: DT_FLOAT
    }
  }
  attr {
    key: "_class"
    value {
      list {
        s: "loc:@lenet/conv1/DW"
      }
    }
  }
  attr {
    key: "_output_shapes"
    value {
      list {
        shape {
          dim {
            size: 5
          }
          dim {
            size: 5
          }
          dim {
            size: 3
          }
          dim {
            size: 6
          }
        }
      }
    }
  }
}
node {
  name: "lenet/conv1/DW"
  op: "VariableV2"
  device: "/device:GPU:0"
  attr {
    key: "_class"
    value {
      list {
        s: "loc:@lenet/conv1/DW"
      }
    }
  }
  attr {
    key: "_output_shapes"
    value {
      list {
        shape {
          dim {
            size: 5
          }
          dim {
            size: 5
          }
          dim {
            size: 3
          }
          dim {
            size: 6
          }
        }
      }
    }
  }
  attr {
    key: "container"
    value {
      s: ""
    }
  }
  attr {
    key: "dtype"
    value {
      type: DT_FLOAT
    }
  }
  attr {
    key: "shape"
    value {
      shape {
        dim {
          size: 5
        }
        dim {
          size: 5
        }
        dim {
          size: 3
        }
        dim {
          size: 6
        }
      }
    }
  }
  attr {
    key: "shared_name"
    value {
      s: ""
    }
  }
}
node {
  name: "lenet/conv1/DW/Assign"
  op: "Assign"
  input: "lenet/conv1/DW"
  input: "lenet/conv1/DW/Initializer/truncated_normal"
  device: "/device:GPU:0"
  attr {
    key: "T"
    value {
      type: DT_FLOAT
    }
  }
  attr {
    key: "_class"
    value {
      list {
        s: "loc:@lenet/conv1/DW"
      }
    }
  }
  attr {
    key: "_output_shapes"
    value {
      list {
        shape {
          dim {
            size: 5
          }
          dim {
            size: 5
          }
          dim {
            size: 3
          }
          dim {
            size: 6
          }
        }
      }
    }
  }
  attr {
    key: "use_locking"
    value {
      b: true
    }
  }
  attr {
    key: "validate_shape"
    value {
      b: true
    }
  }
}
node {
  name: "lenet/conv1/DW/read"
  op: "Identity"
  input: "lenet/conv1/DW"
  device: "/device:GPU:0"
  attr {
    key: "T"
    value {
      type: DT_FLOAT
    }
  }
  attr {
    key: "_class"
    value {
      list {
        s: "loc:@lenet/conv1/DW"
      }
    }
  }
  attr {
    key: "_output_shapes"
    value {
      list {
        shape {
          dim {
            size: 5
          }
          dim {
            size: 5
          }
          dim {
            size: 3
          }
          dim {
            size: 6
          }
        }
      }
    }
  }
}
node {
  name: "lenet/conv1/Conv2D"
  op: "Conv2D"
  input: "lenet/Reshape"
  input: "lenet/conv1/DW/read"
  device: "/device:GPU:0"
  attr {
    key: "T"
    value {
      type: DT_FLOAT
    }
  }
  attr {
    key: "_output_shapes"
    value {
      list {
        shape {
          dim {
            size: 128
          }
          dim {
            size: 24
          }
          dim {
            size: 24
          }
          dim {
            size: 6
          }
        }
      }
    }
  }
  attr {
    key: "data_format"
    value {
      s: "NHWC"
    }
  }
  attr {
    key: "dilations"
    value {
      list {
        i: 1
        i: 1
        i: 1
        i: 1
      }
    }
  }
  attr {
    key: "explicit_paddings"
    value {
      list {
      }
    }
  }
  attr {
    key: "padding"
    value {
      s: "VALID"
    }
  }
  attr {
    key: "strides"
    value {
      list {
        i: 1
        i: 1
        i: 1
        i: 1
      }
    }
  }
  attr {
    key: "use_cudnn_on_gpu"
    value {
      b: true
    }
  }
}
node {
  name: "lenet/add"
  op: "Add"
  input: "lenet/conv1/Conv2D"
  input: "lenet/Variable/read"
  device: "/device:GPU:0"
  attr {
    key: "T"
    value {
      type: DT_FLOAT
    }
  }
  attr {
    key: "_output_shapes"
    value {
      list {
        shape {
          dim {
            size: 128
          }
          dim {
            size: 24
          }
          dim {
            size: 24
          }
          dim {
            size: 6
          }
        }
      }
    }
  }
}
node {
  name: "lenet/Relu"
  op: "Relu"
  input: "lenet/add"
  device: "/device:GPU:0"
  attr {
    key: "T"
    value {
      type: DT_FLOAT
    }
  }
  attr {
    key: "_output_shapes"
    value {
      list {
        shape {
          dim {
            size: 128
          }
          dim {
            size: 24
          }
          dim {
            size: 24
          }
          dim {
            size: 6
          }
        }
      }
    }
  }
}
node {
  name: "lenet/MaxPool"
  op: "MaxPool"
  input: "lenet/Relu"
  device: "/device:GPU:0"
  attr {
    key: "T"
    value {
      type: DT_FLOAT
    }
  }
  attr {
    key: "_output_shapes"
    value {
      list {
        shape {
          dim {
            size: 128
          }
          dim {
            size: 12
          }
          dim {
            size: 12
          }
          dim {
            size: 6
          }
        }
      }
    }
  }
  attr {
    key: "data_format"
    value {
      s: "NHWC"
    }
  }
  attr {
    key: "ksize"
    value {
      list {
        i: 1
        i: 2
        i: 2
        i: 1
      }
    }
  }
  attr {
    key: "padding"
    value {
      s: "SAME"
    }
  }
  attr {
    key: "strides"
    value {
      list {
        i: 1
        i: 2
        i: 2
        i: 1
      }
    }
  }
}
node {
  name: "lenet/Variable_1/Initializer/Const"
  op: "Const"
  attr {
    key: "_class"
    value {
      list {
        s: "loc:@lenet/Variable_1"
      }
    }
  }
  attr {
    key: "_output_shapes"
    value {
      list {
        shape {
          dim {
            size: 16
          }
        }
      }
    }
  }
  attr {
    key: "dtype"
    value {
      type: DT_FLOAT
    }
  }
  attr {
    key: "value"
    value {
      tensor {
        dtype: DT_FLOAT
        tensor_shape {
          dim {
            size: 16
          }
        }
        float_val: 0.10000000149011612
      }
    }
  }
}
node {
  name: "lenet/Variable_1"
  op: "VariableV2"
  device: "/device:GPU:0"
  attr {
    key: "_class"
    value {
      list {
        s: "loc:@lenet/Variable_1"
      }
    }
  }
  attr {
    key: "_output_shapes"
    value {
      list {
        shape {
          dim {
            size: 16
          }
        }
      }
    }
  }
  attr {
    key: "container"
    value {
      s: ""
    }
  }
  attr {
    key: "dtype"
    value {
      type: DT_FLOAT
    }
  }
  attr {
    key: "shape"
    value {
      shape {
        dim {
          size: 16
        }
      }
    }
  }
  attr {
    key: "shared_name"
    value {
      s: ""
    }
  }
}
node {
  name: "lenet/Variable_1/Assign"
  op: "Assign"
  input: "lenet/Variable_1"
  input: "lenet/Variable_1/Initializer/Const"
  device: "/device:GPU:0"
  attr {
    key: "T"
    value {
      type: DT_FLOAT
    }
  }
  attr {
    key: "_class"
    value {
      list {
        s: "loc:@lenet/Variable_1"
      }
    }
  }
  attr {
    key: "_output_shapes"
    value {
      list {
        shape {
          dim {
            size: 16
          }
        }
      }
    }
  }
  attr {
    key: "use_locking"
    value {
      b: true
    }
  }
  attr {
    key: "validate_shape"
    value {
      b: true
    }
  }
}
node {
  name: "lenet/Variable_1/read"
  op: "Identity"
  input: "lenet/Variable_1"
  device: "/device:GPU:0"
  attr {
    key: "T"
    value {
      type: DT_FLOAT
    }
  }
  attr {
    key: "_class"
    value {
      list {
        s: "loc:@lenet/Variable_1"
      }
    }
  }
  attr {
    key: "_output_shapes"
    value {
      list {
        shape {
          dim {
            size: 16
          }
        }
      }
    }
  }
}
node {
  name: "lenet/conv2/DW/Initializer/truncated_normal/shape"
  op: "Const"
  attr {
    key: "_class"
    value {
      list {
        s: "loc:@lenet/conv2/DW"
      }
    }
  }
  attr {
    key: "_output_shapes"
    value {
      list {
        shape {
          dim {
            size: 4
          }
        }
      }
    }
  }
  attr {
    key: "dtype"
    value {
      type: DT_INT32
    }
  }
  attr {
    key: "value"
    value {
      tensor {
        dtype: DT_INT32
        tensor_shape {
          dim {
            size: 4
          }
        }
        tensor_content: "\005\000\000\000\005\000\000\000\006\000\000\000\020\000\000\000"
      }
    }
  }
}
node {
  name: "lenet/conv2/DW/Initializer/truncated_normal/mean"
  op: "Const"
  attr {
    key: "_class"
    value {
      list {
        s: "loc:@lenet/conv2/DW"
      }
    }
  }
  attr {
    key: "_output_shapes"
    value {
      list {
        shape {
        }
      }
    }
  }
  attr {
    key: "dtype"
    value {
      type: DT_FLOAT
    }
  }
  attr {
    key: "value"
    value {
      tensor {
        dtype: DT_FLOAT
        tensor_shape {
        }
        float_val: 0.0
      }
    }
  }
}
node {
  name: "lenet/conv2/DW/Initializer/truncated_normal/stddev"
  op: "Const"
  attr {
    key: "_class"
    value {
      list {
        s: "loc:@lenet/conv2/DW"
      }
    }
  }
  attr {
    key: "_output_shapes"
    value {
      list {
        shape {
        }
      }
    }
  }
  attr {
    key: "dtype"
    value {
      type: DT_FLOAT
    }
  }
  attr {
    key: "value"
    value {
      tensor {
        dtype: DT_FLOAT
        tensor_shape {
        }
        float_val: 0.06855446845293045
      }
    }
  }
}
node {
  name: "lenet/conv2/DW/Initializer/truncated_normal/TruncatedNormal"
  op: "TruncatedNormal"
  input: "lenet/conv2/DW/Initializer/truncated_normal/shape"
  attr {
    key: "T"
    value {
      type: DT_INT32
    }
  }
  attr {
    key: "_class"
    value {
      list {
        s: "loc:@lenet/conv2/DW"
      }
    }
  }
  attr {
    key: "_output_shapes"
    value {
      list {
        shape {
          dim {
            size: 5
          }
          dim {
            size: 5
          }
          dim {
            size: 6
          }
          dim {
            size: 16
          }
        }
      }
    }
  }
  attr {
    key: "dtype"
    value {
      type: DT_FLOAT
    }
  }
  attr {
    key: "seed"
    value {
      i: 0
    }
  }
  attr {
    key: "seed2"
    value {
      i: 0
    }
  }
}
node {
  name: "lenet/conv2/DW/Initializer/truncated_normal/mul"
  op: "Mul"
  input: "lenet/conv2/DW/Initializer/truncated_normal/TruncatedNormal"
  input: "lenet/conv2/DW/Initializer/truncated_normal/stddev"
  attr {
    key: "T"
    value {
      type: DT_FLOAT
    }
  }
  attr {
    key: "_class"
    value {
      list {
        s: "loc:@lenet/conv2/DW"
      }
    }
  }
  attr {
    key: "_output_shapes"
    value {
      list {
        shape {
          dim {
            size: 5
          }
          dim {
            size: 5
          }
          dim {
            size: 6
          }
          dim {
            size: 16
          }
        }
      }
    }
  }
}
node {
  name: "lenet/conv2/DW/Initializer/truncated_normal"
  op: "Add"
  input: "lenet/conv2/DW/Initializer/truncated_normal/mul"
  input: "lenet/conv2/DW/Initializer/truncated_normal/mean"
  attr {
    key: "T"
    value {
      type: DT_FLOAT
    }
  }
  attr {
    key: "_class"
    value {
      list {
        s: "loc:@lenet/conv2/DW"
      }
    }
  }
  attr {
    key: "_output_shapes"
    value {
      list {
        shape {
          dim {
            size: 5
          }
          dim {
            size: 5
          }
          dim {
            size: 6
          }
          dim {
            size: 16
          }
        }
      }
    }
  }
}
node {
  name: "lenet/conv2/DW"
  op: "VariableV2"
  device: "/device:GPU:0"
  attr {
    key: "_class"
    value {
      list {
        s: "loc:@lenet/conv2/DW"
      }
    }
  }
  attr {
    key: "_output_shapes"
    value {
      list {
        shape {
          dim {
            size: 5
          }
          dim {
            size: 5
          }
          dim {
            size: 6
          }
          dim {
            size: 16
          }
        }
      }
    }
  }
  attr {
    key: "container"
    value {
      s: ""
    }
  }
  attr {
    key: "dtype"
    value {
      type: DT_FLOAT
    }
  }
  attr {
    key: "shape"
    value {
      shape {
        dim {
          size: 5
        }
        dim {
          size: 5
        }
        dim {
          size: 6
        }
        dim {
          size: 16
        }
      }
    }
  }
  attr {
    key: "shared_name"
    value {
      s: ""
    }
  }
}
node {
  name: "lenet/conv2/DW/Assign"
  op: "Assign"
  input: "lenet/conv2/DW"
  input: "lenet/conv2/DW/Initializer/truncated_normal"
  device: "/device:GPU:0"
  attr {
    key: "T"
    value {
      type: DT_FLOAT
    }
  }
  attr {
    key: "_class"
    value {
      list {
        s: "loc:@lenet/conv2/DW"
      }
    }
  }
  attr {
    key: "_output_shapes"
    value {
      list {
        shape {
          dim {
            size: 5
          }
          dim {
            size: 5
          }
          dim {
            size: 6
          }
          dim {
            size: 16
          }
        }
      }
    }
  }
  attr {
    key: "use_locking"
    value {
      b: true
    }
  }
  attr {
    key: "validate_shape"
    value {
      b: true
    }
  }
}
node {
  name: "lenet/conv2/DW/read"
  op: "Identity"
  input: "lenet/conv2/DW"
  device: "/device:GPU:0"
  attr {
    key: "T"
    value {
      type: DT_FLOAT
    }
  }
  attr {
    key: "_class"
    value {
      list {
        s: "loc:@lenet/conv2/DW"
      }
    }
  }
  attr {
    key: "_output_shapes"
    value {
      list {
        shape {
          dim {
            size: 5
          }
          dim {
            size: 5
          }
          dim {
            size: 6
          }
          dim {
            size: 16
          }
        }
      }
    }
  }
}
node {
  name: "lenet/conv2/Conv2D"
  op: "Conv2D"
  input: "lenet/MaxPool"
  input: "lenet/conv2/DW/read"
  device: "/device:GPU:0"
  attr {
    key: "T"
    value {
      type: DT_FLOAT
    }
  }
  attr {
    key: "_output_shapes"
    value {
      list {
        shape {
          dim {
            size: 128
          }
          dim {
            size: 8
          }
          dim {
            size: 8
          }
          dim {
            size: 16
          }
        }
      }
    }
  }
  attr {
    key: "data_format"
    value {
      s: "NHWC"
    }
  }
  attr {
    key: "dilations"
    value {
      list {
        i: 1
        i: 1
        i: 1
        i: 1
      }
    }
  }
  attr {
    key: "explicit_paddings"
    value {
      list {
      }
    }
  }
  attr {
    key: "padding"
    value {
      s: "VALID"
    }
  }
  attr {
    key: "strides"
    value {
      list {
        i: 1
        i: 1
        i: 1
        i: 1
      }
    }
  }
  attr {
    key: "use_cudnn_on_gpu"
    value {
      b: true
    }
  }
}
node {
  name: "lenet/add_1"
  op: "Add"
  input: "lenet/conv2/Conv2D"
  input: "lenet/Variable_1/read"
  device: "/device:GPU:0"
  attr {
    key: "T"
    value {
      type: DT_FLOAT
    }
  }
  attr {
    key: "_output_shapes"
    value {
      list {
        shape {
          dim {
            size: 128
          }
          dim {
            size: 8
          }
          dim {
            size: 8
          }
          dim {
            size: 16
          }
        }
      }
    }
  }
}
node {
  name: "lenet/Relu_1"
  op: "Relu"
  input: "lenet/add_1"
  device: "/device:GPU:0"
  attr {
    key: "T"
    value {
      type: DT_FLOAT
    }
  }
  attr {
    key: "_output_shapes"
    value {
      list {
        shape {
          dim {
            size: 128
          }
          dim {
            size: 8
          }
          dim {
            size: 8
          }
          dim {
            size: 16
          }
        }
      }
    }
  }
}
node {
  name: "lenet/MaxPool_1"
  op: "MaxPool"
  input: "lenet/Relu_1"
  device: "/device:GPU:0"
  attr {
    key: "T"
    value {
      type: DT_FLOAT
    }
  }
  attr {
    key: "_output_shapes"
    value {
      list {
        shape {
          dim {
            size: 128
          }
          dim {
            size: 4
          }
          dim {
            size: 4
          }
          dim {
            size: 16
          }
        }
      }
    }
  }
  attr {
    key: "data_format"
    value {
      s: "NHWC"
    }
  }
  attr {
    key: "ksize"
    value {
      list {
        i: 1
        i: 2
        i: 2
        i: 1
      }
    }
  }
  attr {
    key: "padding"
    value {
      s: "SAME"
    }
  }
  attr {
    key: "strides"
    value {
      list {
        i: 1
        i: 2
        i: 2
        i: 1
      }
    }
  }
}
node {
  name: "lenet/Reshape_1/shape"
  op: "Const"
  device: "/device:GPU:0"
  attr {
    key: "_output_shapes"
    value {
      list {
        shape {
          dim {
            size: 2
          }
        }
      }
    }
  }
  attr {
    key: "dtype"
    value {
      type: DT_INT32
    }
  }
  attr {
    key: "value"
    value {
      tensor {
        dtype: DT_INT32
        tensor_shape {
          dim {
            size: 2
          }
        }
        tensor_content: "\200\000\000\000\377\377\377\377"
      }
    }
  }
}
node {
  name: "lenet/Reshape_1"
  op: "Reshape"
  input: "lenet/MaxPool_1"
  input: "lenet/Reshape_1/shape"
  device: "/device:GPU:0"
  attr {
    key: "T"
    value {
      type: DT_FLOAT
    }
  }
  attr {
    key: "Tshape"
    value {
      type: DT_INT32
    }
  }
  attr {
    key: "_output_shapes"
    value {
      list {
        shape {
          dim {
            size: 128
          }
          dim {
            size: 256
          }
        }
      }
    }
  }
}
node {
  name: "lenet/fc1/dense/kernel/Initializer/truncated_normal/shape"
  op: "Const"
  attr {
    key: "_class"
    value {
      list {
        s: "loc:@lenet/fc1/dense/kernel"
      }
    }
  }
  attr {
    key: "_output_shapes"
    value {
      list {
        shape {
          dim {
            size: 2
          }
        }
      }
    }
  }
  attr {
    key: "dtype"
    value {
      type: DT_INT32
    }
  }
  attr {
    key: "value"
    value {
      tensor {
        dtype: DT_INT32
        tensor_shape {
          dim {
            size: 2
          }
        }
        tensor_content: "\000\001\000\000\364\001\000\000"
      }
    }
  }
}
node {
  name: "lenet/fc1/dense/kernel/Initializer/truncated_normal/mean"
  op: "Const"
  attr {
    key: "_class"
    value {
      list {
        s: "loc:@lenet/fc1/dense/kernel"
      }
    }
  }
  attr {
    key: "_output_shapes"
    value {
      list {
        shape {
        }
      }
    }
  }
  attr {
    key: "dtype"
    value {
      type: DT_FLOAT
    }
  }
  attr {
    key: "value"
    value {
      tensor {
        dtype: DT_FLOAT
        tensor_shape {
        }
        float_val: 0.0
      }
    }
  }
}
node {
  name: "lenet/fc1/dense/kernel/Initializer/truncated_normal/stddev"
  op: "Const"
  attr {
    key: "_class"
    value {
      list {
        s: "loc:@lenet/fc1/dense/kernel"
      }
    }
  }
  attr {
    key: "_output_shapes"
    value {
      list {
        shape {
        }
      }
    }
  }
  attr {
    key: "dtype"
    value {
      type: DT_FLOAT
    }
  }
  attr {
    key: "value"
    value {
      tensor {
        dtype: DT_FLOAT
        tensor_shape {
        }
        float_val: 0.05847311392426491
      }
    }
  }
}
node {
  name: "lenet/fc1/dense/kernel/Initializer/truncated_normal/TruncatedNormal"
  op: "TruncatedNormal"
  input: "lenet/fc1/dense/kernel/Initializer/truncated_normal/shape"
  attr {
    key: "T"
    value {
      type: DT_INT32
    }
  }
  attr {
    key: "_class"
    value {
      list {
        s: "loc:@lenet/fc1/dense/kernel"
      }
    }
  }
  attr {
    key: "_output_shapes"
    value {
      list {
        shape {
          dim {
            size: 256
          }
          dim {
            size: 500
          }
        }
      }
    }
  }
  attr {
    key: "dtype"
    value {
      type: DT_FLOAT
    }
  }
  attr {
    key: "seed"
    value {
      i: 0
    }
  }
  attr {
    key: "seed2"
    value {
      i: 0
    }
  }
}
node {
  name: "lenet/fc1/dense/kernel/Initializer/truncated_normal/mul"
  op: "Mul"
  input: "lenet/fc1/dense/kernel/Initializer/truncated_normal/TruncatedNormal"
  input: "lenet/fc1/dense/kernel/Initializer/truncated_normal/stddev"
  attr {
    key: "T"
    value {
      type: DT_FLOAT
    }
  }
  attr {
    key: "_class"
    value {
      list {
        s: "loc:@lenet/fc1/dense/kernel"
      }
    }
  }
  attr {
    key: "_output_shapes"
    value {
      list {
        shape {
          dim {
            size: 256
          }
          dim {
            size: 500
          }
        }
      }
    }
  }
}
node {
  name: "lenet/fc1/dense/kernel/Initializer/truncated_normal"
  op: "Add"
  input: "lenet/fc1/dense/kernel/Initializer/truncated_normal/mul"
  input: "lenet/fc1/dense/kernel/Initializer/truncated_normal/mean"
  attr {
    key: "T"
    value {
      type: DT_FLOAT
    }
  }
  attr {
    key: "_class"
    value {
      list {
        s: "loc:@lenet/fc1/dense/kernel"
      }
    }
  }
  attr {
    key: "_output_shapes"
    value {
      list {
        shape {
          dim {
            size: 256
          }
          dim {
            size: 500
          }
        }
      }
    }
  }
}
node {
  name: "lenet/fc1/dense/kernel"
  op: "VariableV2"
  device: "/device:GPU:0"
  attr {
    key: "_class"
    value {
      list {
        s: "loc:@lenet/fc1/dense/kernel"
      }
    }
  }
  attr {
    key: "_output_shapes"
    value {
      list {
        shape {
          dim {
            size: 256
          }
          dim {
            size: 500
          }
        }
      }
    }
  }
  attr {
    key: "container"
    value {
      s: ""
    }
  }
  attr {
    key: "dtype"
    value {
      type: DT_FLOAT
    }
  }
  attr {
    key: "shape"
    value {
      shape {
        dim {
          size: 256
        }
        dim {
          size: 500
        }
      }
    }
  }
  attr {
    key: "shared_name"
    value {
      s: ""
    }
  }
}
node {
  name: "lenet/fc1/dense/kernel/Assign"
  op: "Assign"
  input: "lenet/fc1/dense/kernel"
  input: "lenet/fc1/dense/kernel/Initializer/truncated_normal"
  device: "/device:GPU:0"
  attr {
    key: "T"
    value {
      type: DT_FLOAT
    }
  }
  attr {
    key: "_class"
    value {
      list {
        s: "loc:@lenet/fc1/dense/kernel"
      }
    }
  }
  attr {
    key: "_output_shapes"
    value {
      list {
        shape {
          dim {
            size: 256
          }
          dim {
            size: 500
          }
        }
      }
    }
  }
  attr {
    key: "use_locking"
    value {
      b: true
    }
  }
  attr {
    key: "validate_shape"
    value {
      b: true
    }
  }
}
node {
  name: "lenet/fc1/dense/kernel/read"
  op: "Identity"
  input: "lenet/fc1/dense/kernel"
  device: "/device:GPU:0"
  attr {
    key: "T"
    value {
      type: DT_FLOAT
    }
  }
  attr {
    key: "_class"
    value {
      list {
        s: "loc:@lenet/fc1/dense/kernel"
      }
    }
  }
  attr {
    key: "_output_shapes"
    value {
      list {
        shape {
          dim {
            size: 256
          }
          dim {
            size: 500
          }
        }
      }
    }
  }
}
node {
  name: "lenet/fc1/dense/bias/Initializer/zeros"
  op: "Const"
  attr {
    key: "_class"
    value {
      list {
        s: "loc:@lenet/fc1/dense/bias"
      }
    }
  }
  attr {
    key: "_output_shapes"
    value {
      list {
        shape {
          dim {
            size: 500
          }
        }
      }
    }
  }
  attr {
    key: "dtype"
    value {
      type: DT_FLOAT
    }
  }
  attr {
    key: "value"
    value {
      tensor {
        dtype: DT_FLOAT
        tensor_shape {
          dim {
            size: 500
          }
        }
        float_val: 0.0
      }
    }
  }
}
node {
  name: "lenet/fc1/dense/bias"
  op: "VariableV2"
  device: "/device:GPU:0"
  attr {
    key: "_class"
    value {
      list {
        s: "loc:@lenet/fc1/dense/bias"
      }
    }
  }
  attr {
    key: "_output_shapes"
    value {
      list {
        shape {
          dim {
            size: 500
          }
        }
      }
    }
  }
  attr {
    key: "container"
    value {
      s: ""
    }
  }
  attr {
    key: "dtype"
    value {
      type: DT_FLOAT
    }
  }
  attr {
    key: "shape"
    value {
      shape {
        dim {
          size: 500
        }
      }
    }
  }
  attr {
    key: "shared_name"
    value {
      s: ""
    }
  }
}
node {
  name: "lenet/fc1/dense/bias/Assign"
  op: "Assign"
  input: "lenet/fc1/dense/bias"
  input: "lenet/fc1/dense/bias/Initializer/zeros"
  device: "/device:GPU:0"
  attr {
    key: "T"
    value {
      type: DT_FLOAT
    }
  }
  attr {
    key: "_class"
    value {
      list {
        s: "loc:@lenet/fc1/dense/bias"
      }
    }
  }
  attr {
    key: "_output_shapes"
    value {
      list {
        shape {
          dim {
            size: 500
          }
        }
      }
    }
  }
  attr {
    key: "use_locking"
    value {
      b: true
    }
  }
  attr {
    key: "validate_shape"
    value {
      b: true
    }
  }
}
node {
  name: "lenet/fc1/dense/bias/read"
  op: "Identity"
  input: "lenet/fc1/dense/bias"
  device: "/device:GPU:0"
  attr {
    key: "T"
    value {
      type: DT_FLOAT
    }
  }
  attr {
    key: "_class"
    value {
      list {
        s: "loc:@lenet/fc1/dense/bias"
      }
    }
  }
  attr {
    key: "_output_shapes"
    value {
      list {
        shape {
          dim {
            size: 500
          }
        }
      }
    }
  }
}
node {
  name: "lenet/fc1/dense/post_dropout"
  op: "Identity"
  input: "lenet/fc1/dense/kernel/read"
  device: "/device:GPU:0"
  attr {
    key: "T"
    value {
      type: DT_FLOAT
    }
  }
  attr {
    key: "_output_shapes"
    value {
      list {
        shape {
          dim {
            size: 256
          }
          dim {
            size: 500
          }
        }
      }
    }
  }
}
node {
  name: "lenet/fc1/dense/MatMul"
  op: "MatMul"
  input: "lenet/Reshape_1"
  input: "lenet/fc1/dense/post_dropout"
  device: "/device:GPU:0"
  attr {
    key: "T"
    value {
      type: DT_FLOAT
    }
  }
  attr {
    key: "_output_shapes"
    value {
      list {
        shape {
          dim {
            size: 128
          }
          dim {
            size: 500
          }
        }
      }
    }
  }
  attr {
    key: "transpose_a"
    value {
      b: false
    }
  }
  attr {
    key: "transpose_b"
    value {
      b: false
    }
  }
}
node {
  name: "lenet/fc1/dense/add"
  op: "Add"
  input: "lenet/fc1/dense/MatMul"
  input: "lenet/fc1/dense/bias/read"
  device: "/device:GPU:0"
  attr {
    key: "T"
    value {
      type: DT_FLOAT
    }
  }
  attr {
    key: "_output_shapes"
    value {
      list {
        shape {
          dim {
            size: 128
          }
          dim {
            size: 500
          }
        }
      }
    }
  }
}
node {
  name: "lenet/fc1/Relu"
  op: "Relu"
  input: "lenet/fc1/dense/add"
  device: "/device:GPU:0"
  attr {
    key: "T"
    value {
      type: DT_FLOAT
    }
  }
  attr {
    key: "_output_shapes"
    value {
      list {
        shape {
          dim {
            size: 128
          }
          dim {
            size: 500
          }
        }
      }
    }
  }
}
node {
  name: "lenet/fc2/dense/kernel/Initializer/truncated_normal/shape"
  op: "Const"
  attr {
    key: "_class"
    value {
      list {
        s: "loc:@lenet/fc2/dense/kernel"
      }
    }
  }
  attr {
    key: "_output_shapes"
    value {
      list {
        shape {
          dim {
            size: 2
          }
        }
      }
    }
  }
  attr {
    key: "dtype"
    value {
      type: DT_INT32
    }
  }
  attr {
    key: "value"
    value {
      tensor {
        dtype: DT_INT32
        tensor_shape {
          dim {
            size: 2
          }
        }
        tensor_content: "\364\001\000\000\n\000\000\000"
      }
    }
  }
}
node {
  name: "lenet/fc2/dense/kernel/Initializer/truncated_normal/mean"
  op: "Const"
  attr {
    key: "_class"
    value {
      list {
        s: "loc:@lenet/fc2/dense/kernel"
      }
    }
  }
  attr {
    key: "_output_shapes"
    value {
      list {
        shape {
        }
      }
    }
  }
  attr {
    key: "dtype"
    value {
      type: DT_FLOAT
    }
  }
  attr {
    key: "value"
    value {
      tensor {
        dtype: DT_FLOAT
        tensor_shape {
        }
        float_val: 0.0
      }
    }
  }
}
node {
  name: "lenet/fc2/dense/kernel/Initializer/truncated_normal/stddev"
  op: "Const"
  attr {
    key: "_class"
    value {
      list {
        s: "loc:@lenet/fc2/dense/kernel"
      }
    }
  }
  attr {
    key: "_output_shapes"
    value {
      list {
        shape {
        }
      }
    }
  }
  attr {
    key: "dtype"
    value {
      type: DT_FLOAT
    }
  }
  attr {
    key: "value"
    value {
      tensor {
        dtype: DT_FLOAT
        tensor_shape {
        }
        float_val: 0.07119213789701462
      }
    }
  }
}
node {
  name: "lenet/fc2/dense/kernel/Initializer/truncated_normal/TruncatedNormal"
  op: "TruncatedNormal"
  input: "lenet/fc2/dense/kernel/Initializer/truncated_normal/shape"
  attr {
    key: "T"
    value {
      type: DT_INT32
    }
  }
  attr {
    key: "_class"
    value {
      list {
        s: "loc:@lenet/fc2/dense/kernel"
      }
    }
  }
  attr {
    key: "_output_shapes"
    value {
      list {
        shape {
          dim {
            size: 500
          }
          dim {
            size: 10
          }
        }
      }
    }
  }
  attr {
    key: "dtype"
    value {
      type: DT_FLOAT
    }
  }
  attr {
    key: "seed"
    value {
      i: 0
    }
  }
  attr {
    key: "seed2"
    value {
      i: 0
    }
  }
}
node {
  name: "lenet/fc2/dense/kernel/Initializer/truncated_normal/mul"
  op: "Mul"
  input: "lenet/fc2/dense/kernel/Initializer/truncated_normal/TruncatedNormal"
  input: "lenet/fc2/dense/kernel/Initializer/truncated_normal/stddev"
  attr {
    key: "T"
    value {
      type: DT_FLOAT
    }
  }
  attr {
    key: "_class"
    value {
      list {
        s: "loc:@lenet/fc2/dense/kernel"
      }
    }
  }
  attr {
    key: "_output_shapes"
    value {
      list {
        shape {
          dim {
            size: 500
          }
          dim {
            size: 10
          }
        }
      }
    }
  }
}
node {
  name: "lenet/fc2/dense/kernel/Initializer/truncated_normal"
  op: "Add"
  input: "lenet/fc2/dense/kernel/Initializer/truncated_normal/mul"
  input: "lenet/fc2/dense/kernel/Initializer/truncated_normal/mean"
  attr {
    key: "T"
    value {
      type: DT_FLOAT
    }
  }
  attr {
    key: "_class"
    value {
      list {
        s: "loc:@lenet/fc2/dense/kernel"
      }
    }
  }
  attr {
    key: "_output_shapes"
    value {
      list {
        shape {
          dim {
            size: 500
          }
          dim {
            size: 10
          }
        }
      }
    }
  }
}
node {
  name: "lenet/fc2/dense/kernel"
  op: "VariableV2"
  device: "/device:GPU:0"
  attr {
    key: "_class"
    value {
      list {
        s: "loc:@lenet/fc2/dense/kernel"
      }
    }
  }
  attr {
    key: "_output_shapes"
    value {
      list {
        shape {
          dim {
            size: 500
          }
          dim {
            size: 10
          }
        }
      }
    }
  }
  attr {
    key: "container"
    value {
      s: ""
    }
  }
  attr {
    key: "dtype"
    value {
      type: DT_FLOAT
    }
  }
  attr {
    key: "shape"
    value {
      shape {
        dim {
          size: 500
        }
        dim {
          size: 10
        }
      }
    }
  }
  attr {
    key: "shared_name"
    value {
      s: ""
    }
  }
}
node {
  name: "lenet/fc2/dense/kernel/Assign"
  op: "Assign"
  input: "lenet/fc2/dense/kernel"
  input: "lenet/fc2/dense/kernel/Initializer/truncated_normal"
  device: "/device:GPU:0"
  attr {
    key: "T"
    value {
      type: DT_FLOAT
    }
  }
  attr {
    key: "_class"
    value {
      list {
        s: "loc:@lenet/fc2/dense/kernel"
      }
    }
  }
  attr {
    key: "_output_shapes"
    value {
      list {
        shape {
          dim {
            size: 500
          }
          dim {
            size: 10
          }
        }
      }
    }
  }
  attr {
    key: "use_locking"
    value {
      b: true
    }
  }
  attr {
    key: "validate_shape"
    value {
      b: true
    }
  }
}
node {
  name: "lenet/fc2/dense/kernel/read"
  op: "Identity"
  input: "lenet/fc2/dense/kernel"
  device: "/device:GPU:0"
  attr {
    key: "T"
    value {
      type: DT_FLOAT
    }
  }
  attr {
    key: "_class"
    value {
      list {
        s: "loc:@lenet/fc2/dense/kernel"
      }
    }
  }
  attr {
    key: "_output_shapes"
    value {
      list {
        shape {
          dim {
            size: 500
          }
          dim {
            size: 10
          }
        }
      }
    }
  }
}
node {
  name: "lenet/fc2/dense/bias/Initializer/zeros"
  op: "Const"
  attr {
    key: "_class"
    value {
      list {
        s: "loc:@lenet/fc2/dense/bias"
      }
    }
  }
  attr {
    key: "_output_shapes"
    value {
      list {
        shape {
          dim {
            size: 10
          }
        }
      }
    }
  }
  attr {
    key: "dtype"
    value {
      type: DT_FLOAT
    }
  }
  attr {
    key: "value"
    value {
      tensor {
        dtype: DT_FLOAT
        tensor_shape {
          dim {
            size: 10
          }
        }
        float_val: 0.0
      }
    }
  }
}
node {
  name: "lenet/fc2/dense/bias"
  op: "VariableV2"
  device: "/device:GPU:0"
  attr {
    key: "_class"
    value {
      list {
        s: "loc:@lenet/fc2/dense/bias"
      }
    }
  }
  attr {
    key: "_output_shapes"
    value {
      list {
        shape {
          dim {
            size: 10
          }
        }
      }
    }
  }
  attr {
    key: "container"
    value {
      s: ""
    }
  }
  attr {
    key: "dtype"
    value {
      type: DT_FLOAT
    }
  }
  attr {
    key: "shape"
    value {
      shape {
        dim {
          size: 10
        }
      }
    }
  }
  attr {
    key: "shared_name"
    value {
      s: ""
    }
  }
}
node {
  name: "lenet/fc2/dense/bias/Assign"
  op: "Assign"
  input: "lenet/fc2/dense/bias"
  input: "lenet/fc2/dense/bias/Initializer/zeros"
  device: "/device:GPU:0"
  attr {
    key: "T"
    value {
      type: DT_FLOAT
    }
  }
  attr {
    key: "_class"
    value {
      list {
        s: "loc:@lenet/fc2/dense/bias"
      }
    }
  }
  attr {
    key: "_output_shapes"
    value {
      list {
        shape {
          dim {
            size: 10
          }
        }
      }
    }
  }
  attr {
    key: "use_locking"
    value {
      b: true
    }
  }
  attr {
    key: "validate_shape"
    value {
      b: true
    }
  }
}
node {
  name: "lenet/fc2/dense/bias/read"
  op: "Identity"
  input: "lenet/fc2/dense/bias"
  device: "/device:GPU:0"
  attr {
    key: "T"
    value {
      type: DT_FLOAT
    }
  }
  attr {
    key: "_class"
    value {
      list {
        s: "loc:@lenet/fc2/dense/bias"
      }
    }
  }
  attr {
    key: "_output_shapes"
    value {
      list {
        shape {
          dim {
            size: 10
          }
        }
      }
    }
  }
}
node {
  name: "lenet/fc2/dense/post_dropout"
  op: "Identity"
  input: "lenet/fc2/dense/kernel/read"
  device: "/device:GPU:0"
  attr {
    key: "T"
    value {
      type: DT_FLOAT
    }
  }
  attr {
    key: "_output_shapes"
    value {
      list {
        shape {
          dim {
            size: 500
          }
          dim {
            size: 10
          }
        }
      }
    }
  }
}
node {
  name: "lenet/fc2/dense/MatMul"
  op: "MatMul"
  input: "lenet/fc1/Relu"
  input: "lenet/fc2/dense/post_dropout"
  device: "/device:GPU:0"
  attr {
    key: "T"
    value {
      type: DT_FLOAT
    }
  }
  attr {
    key: "_output_shapes"
    value {
      list {
        shape {
          dim {
            size: 128
          }
          dim {
            size: 10
          }
        }
      }
    }
  }
  attr {
    key: "transpose_a"
    value {
      b: false
    }
  }
  attr {
    key: "transpose_b"
    value {
      b: false
    }
  }
}
node {
  name: "lenet/fc2/dense/add"
  op: "Add"
  input: "lenet/fc2/dense/MatMul"
  input: "lenet/fc2/dense/bias/read"
  device: "/device:GPU:0"
  attr {
    key: "T"
    value {
      type: DT_FLOAT
    }
  }
  attr {
    key: "_output_shapes"
    value {
      list {
        shape {
          dim {
            size: 128
          }
          dim {
            size: 10
          }
        }
      }
    }
  }
}
node {
  name: "lenet/sparse_softmax_cross_entropy_loss/Const"
  op: "Const"
  device: "/device:GPU:0"
  attr {
    key: "_output_shapes"
    value {
      list {
        shape {
        }
      }
    }
  }
  attr {
    key: "dtype"
    value {
      type: DT_FLOAT
    }
  }
  attr {
    key: "value"
    value {
      tensor {
        dtype: DT_FLOAT
        tensor_shape {
        }
        float_val: 1.0
      }
    }
  }
}
node {
  name: "lenet/sparse_softmax_cross_entropy_loss/xentropy/Shape"
  op: "Shape"
  input: "IteratorGetNext:1"
  device: "/device:GPU:0"
  attr {
    key: "T"
    value {
      type: DT_INT32
    }
  }
  attr {
    key: "_output_shapes"
    value {
      list {
        shape {
          dim {
            size: 1
          }
        }
      }
    }
  }
  attr {
    key: "out_type"
    value {
      type: DT_INT32
    }
  }
}
node {
  name: "lenet/sparse_softmax_cross_entropy_loss/xentropy/xentropy"
  op: "SparseSoftmaxCrossEntropyWithLogits"
  input: "lenet/fc2/dense/add"
  input: "IteratorGetNext:1"
  device: "/device:GPU:0"
  attr {
    key: "T"
    value {
      type: DT_FLOAT
    }
  }
  attr {
    key: "Tlabels"
    value {
      type: DT_INT32
    }
  }
  attr {
    key: "_output_shapes"
    value {
      list {
        shape {
          dim {
            size: 128
          }
        }
        shape {
          dim {
            size: 128
          }
          dim {
            size: 10
          }
        }
      }
    }
  }
}
node {
  name: "lenet/sparse_softmax_cross_entropy_loss/assert_broadcastable/weights/shape"
  op: "Const"
  device: "/device:GPU:0"
  attr {
    key: "_output_shapes"
    value {
      list {
        shape {
          dim {
          }
        }
      }
    }
  }
  attr {
    key: "dtype"
    value {
      type: DT_INT32
    }
  }
  attr {
    key: "value"
    value {
      tensor {
        dtype: DT_INT32
        tensor_shape {
          dim {
          }
        }
      }
    }
  }
}
node {
  name: "lenet/sparse_softmax_cross_entropy_loss/assert_broadcastable/weights/rank"
  op: "Const"
  device: "/device:GPU:0"
  attr {
    key: "_output_shapes"
    value {
      list {
        shape {
        }
      }
    }
  }
  attr {
    key: "dtype"
    value {
      type: DT_INT32
    }
  }
  attr {
    key: "value"
    value {
      tensor {
        dtype: DT_INT32
        tensor_shape {
        }
        int_val: 0
      }
    }
  }
}
node {
  name: "lenet/sparse_softmax_cross_entropy_loss/assert_broadcastable/values/shape"
  op: "Const"
  device: "/device:GPU:0"
  attr {
    key: "_output_shapes"
    value {
      list {
        shape {
          dim {
            size: 1
          }
        }
      }
    }
  }
  attr {
    key: "dtype"
    value {
      type: DT_INT32
    }
  }
  attr {
    key: "value"
    value {
      tensor {
        dtype: DT_INT32
        tensor_shape {
          dim {
            size: 1
          }
        }
        int_val: 128
      }
    }
  }
}
node {
  name: "lenet/sparse_softmax_cross_entropy_loss/assert_broadcastable/values/rank"
  op: "Const"
  device: "/device:GPU:0"
  attr {
    key: "_output_shapes"
    value {
      list {
        shape {
        }
      }
    }
  }
  attr {
    key: "dtype"
    value {
      type: DT_INT32
    }
  }
  attr {
    key: "value"
    value {
      tensor {
        dtype: DT_INT32
        tensor_shape {
        }
        int_val: 1
      }
    }
  }
}
node {
  name: "lenet/sparse_softmax_cross_entropy_loss/assert_broadcastable/static_scalar_check_success"
  op: "NoOp"
  device: "/device:GPU:0"
}
node {
  name: "lenet/sparse_softmax_cross_entropy_loss/Mul"
  op: "Mul"
  input: "lenet/sparse_softmax_cross_entropy_loss/xentropy/xentropy"
  input: "lenet/sparse_softmax_cross_entropy_loss/Const"
  input: "^lenet/sparse_softmax_cross_entropy_loss/assert_broadcastable/static_scalar_check_success"
  device: "/device:GPU:0"
  attr {
    key: "T"
    value {
      type: DT_FLOAT
    }
  }
  attr {
    key: "_output_shapes"
    value {
      list {
        shape {
          dim {
            size: 128
          }
        }
      }
    }
  }
}
node {
  name: "lenet/sparse_softmax_cross_entropy_loss/Const_1"
  op: "Const"
  input: "^lenet/sparse_softmax_cross_entropy_loss/assert_broadcastable/static_scalar_check_success"
  device: "/device:GPU:0"
  attr {
    key: "_output_shapes"
    value {
      list {
        shape {
          dim {
            size: 1
          }
        }
      }
    }
  }
  attr {
    key: "dtype"
    value {
      type: DT_INT32
    }
  }
  attr {
    key: "value"
    value {
      tensor {
        dtype: DT_INT32
        tensor_shape {
          dim {
            size: 1
          }
        }
        int_val: 0
      }
    }
  }
}
node {
  name: "lenet/sparse_softmax_cross_entropy_loss/Sum"
  op: "Sum"
  input: "lenet/sparse_softmax_cross_entropy_loss/Mul"
  input: "lenet/sparse_softmax_cross_entropy_loss/Const_1"
  device: "/device:GPU:0"
  attr {
    key: "T"
    value {
      type: DT_FLOAT
    }
  }
  attr {
    key: "Tidx"
    value {
      type: DT_INT32
    }
  }
  attr {
    key: "_output_shapes"
    value {
      list {
        shape {
        }
      }
    }
  }
  attr {
    key: "keep_dims"
    value {
      b: false
    }
  }
}
node {
  name: "lenet/sparse_softmax_cross_entropy_loss/num_present/Equal/y"
  op: "Const"
  input: "^lenet/sparse_softmax_cross_entropy_loss/assert_broadcastable/static_scalar_check_success"
  device: "/device:GPU:0"
  attr {
    key: "_output_shapes"
    value {
      list {
        shape {
        }
      }
    }
  }
  attr {
    key: "dtype"
    value {
      type: DT_FLOAT
    }
  }
  attr {
    key: "value"
    value {
      tensor {
        dtype: DT_FLOAT
        tensor_shape {
        }
        float_val: 0.0
      }
    }
  }
}
node {
  name: "lenet/sparse_softmax_cross_entropy_loss/num_present/Equal"
  op: "Equal"
  input: "lenet/sparse_softmax_cross_entropy_loss/Const"
  input: "lenet/sparse_softmax_cross_entropy_loss/num_present/Equal/y"
  device: "/device:GPU:0"
  attr {
    key: "T"
    value {
      type: DT_FLOAT
    }
  }
  attr {
    key: "_output_shapes"
    value {
      list {
        shape {
        }
      }
    }
  }
}
node {
  name: "lenet/sparse_softmax_cross_entropy_loss/num_present/zeros_like"
  op: "Const"
  input: "^lenet/sparse_softmax_cross_entropy_loss/assert_broadcastable/static_scalar_check_success"
  device: "/device:GPU:0"
  attr {
    key: "_output_shapes"
    value {
      list {
        shape {
        }
      }
    }
  }
  attr {
    key: "dtype"
    value {
      type: DT_FLOAT
    }
  }
  attr {
    key: "value"
    value {
      tensor {
        dtype: DT_FLOAT
        tensor_shape {
        }
        float_val: 0.0
      }
    }
  }
}
node {
  name: "lenet/sparse_softmax_cross_entropy_loss/num_present/ones_like/Shape"
  op: "Const"
  input: "^lenet/sparse_softmax_cross_entropy_loss/assert_broadcastable/static_scalar_check_success"
  device: "/device:GPU:0"
  attr {
    key: "_output_shapes"
    value {
      list {
        shape {
          dim {
          }
        }
      }
    }
  }
  attr {
    key: "dtype"
    value {
      type: DT_INT32
    }
  }
  attr {
    key: "value"
    value {
      tensor {
        dtype: DT_INT32
        tensor_shape {
          dim {
          }
        }
      }
    }
  }
}
node {
  name: "lenet/sparse_softmax_cross_entropy_loss/num_present/ones_like/Const"
  op: "Const"
  input: "^lenet/sparse_softmax_cross_entropy_loss/assert_broadcastable/static_scalar_check_success"
  device: "/device:GPU:0"
  attr {
    key: "_output_shapes"
    value {
      list {
        shape {
        }
      }
    }
  }
  attr {
    key: "dtype"
    value {
      type: DT_FLOAT
    }
  }
  attr {
    key: "value"
    value {
      tensor {
        dtype: DT_FLOAT
        tensor_shape {
        }
        float_val: 1.0
      }
    }
  }
}
node {
  name: "lenet/sparse_softmax_cross_entropy_loss/num_present/ones_like"
  op: "Fill"
  input: "lenet/sparse_softmax_cross_entropy_loss/num_present/ones_like/Shape"
  input: "lenet/sparse_softmax_cross_entropy_loss/num_present/ones_like/Const"
  device: "/device:GPU:0"
  attr {
    key: "T"
    value {
      type: DT_FLOAT
    }
  }
  attr {
    key: "_output_shapes"
    value {
      list {
        shape {
        }
      }
    }
  }
  attr {
    key: "index_type"
    value {
      type: DT_INT32
    }
  }
}
node {
  name: "lenet/sparse_softmax_cross_entropy_loss/num_present/Select"
  op: "Select"
  input: "lenet/sparse_softmax_cross_entropy_loss/num_present/Equal"
  input: "lenet/sparse_softmax_cross_entropy_loss/num_present/zeros_like"
  input: "lenet/sparse_softmax_cross_entropy_loss/num_present/ones_like"
  device: "/device:GPU:0"
  attr {
    key: "T"
    value {
      type: DT_FLOAT
    }
  }
  attr {
    key: "_output_shapes"
    value {
      list {
        shape {
        }
      }
    }
  }
}
node {
  name: "lenet/sparse_softmax_cross_entropy_loss/num_present/broadcast_weights/assert_broadcastable/weights/shape"
  op: "Const"
  input: "^lenet/sparse_softmax_cross_entropy_loss/assert_broadcastable/static_scalar_check_success"
  device: "/device:GPU:0"
  attr {
    key: "_output_shapes"
    value {
      list {
        shape {
          dim {
          }
        }
      }
    }
  }
  attr {
    key: "dtype"
    value {
      type: DT_INT32
    }
  }
  attr {
    key: "value"
    value {
      tensor {
        dtype: DT_INT32
        tensor_shape {
          dim {
          }
        }
      }
    }
  }
}
node {
  name: "lenet/sparse_softmax_cross_entropy_loss/num_present/broadcast_weights/assert_broadcastable/weights/rank"
  op: "Const"
  input: "^lenet/sparse_softmax_cross_entropy_loss/assert_broadcastable/static_scalar_check_success"
  device: "/device:GPU:0"
  attr {
    key: "_output_shapes"
    value {
      list {
        shape {
        }
      }
    }
  }
  attr {
    key: "dtype"
    value {
      type: DT_INT32
    }
  }
  attr {
    key: "value"
    value {
      tensor {
        dtype: DT_INT32
        tensor_shape {
        }
        int_val: 0
      }
    }
  }
}
node {
  name: "lenet/sparse_softmax_cross_entropy_loss/num_present/broadcast_weights/assert_broadcastable/values/shape"
  op: "Const"
  input: "^lenet/sparse_softmax_cross_entropy_loss/assert_broadcastable/static_scalar_check_success"
  device: "/device:GPU:0"
  attr {
    key: "_output_shapes"
    value {
      list {
        shape {
          dim {
            size: 1
          }
        }
      }
    }
  }
  attr {
    key: "dtype"
    value {
      type: DT_INT32
    }
  }
  attr {
    key: "value"
    value {
      tensor {
        dtype: DT_INT32
        tensor_shape {
          dim {
            size: 1
          }
        }
        int_val: 128
      }
    }
  }
}
node {
  name: "lenet/sparse_softmax_cross_entropy_loss/num_present/broadcast_weights/assert_broadcastable/values/rank"
  op: "Const"
  input: "^lenet/sparse_softmax_cross_entropy_loss/assert_broadcastable/static_scalar_check_success"
  device: "/device:GPU:0"
  attr {
    key: "_output_shapes"
    value {
      list {
        shape {
        }
      }
    }
  }
  attr {
    key: "dtype"
    value {
      type: DT_INT32
    }
  }
  attr {
    key: "value"
    value {
      tensor {
        dtype: DT_INT32
        tensor_shape {
        }
        int_val: 1
      }
    }
  }
}
node {
  name: "lenet/sparse_softmax_cross_entropy_loss/num_present/broadcast_weights/assert_broadcastable/static_scalar_check_success"
  op: "NoOp"
  input: "^lenet/sparse_softmax_cross_entropy_loss/assert_broadcastable/static_scalar_check_success"
  device: "/device:GPU:0"
}
node {
  name: "lenet/sparse_softmax_cross_entropy_loss/num_present/broadcast_weights/ones_like/Shape"
  op: "Const"
  input: "^lenet/sparse_softmax_cross_entropy_loss/assert_broadcastable/static_scalar_check_success"
  input: "^lenet/sparse_softmax_cross_entropy_loss/num_present/broadcast_weights/assert_broadcastable/static_scalar_check_success"
  device: "/device:GPU:0"
  attr {
    key: "_output_shapes"
    value {
      list {
        shape {
          dim {
            size: 1
          }
        }
      }
    }
  }
  attr {
    key: "dtype"
    value {
      type: DT_INT32
    }
  }
  attr {
    key: "value"
    value {
      tensor {
        dtype: DT_INT32
        tensor_shape {
          dim {
            size: 1
          }
        }
        int_val: 128
      }
    }
  }
}
node {
  name: "lenet/sparse_softmax_cross_entropy_loss/num_present/broadcast_weights/ones_like/Const"
  op: "Const"
  input: "^lenet/sparse_softmax_cross_entropy_loss/assert_broadcastable/static_scalar_check_success"
  input: "^lenet/sparse_softmax_cross_entropy_loss/num_present/broadcast_weights/assert_broadcastable/static_scalar_check_success"
  device: "/device:GPU:0"
  attr {
    key: "_output_shapes"
    value {
      list {
        shape {
        }
      }
    }
  }
  attr {
    key: "dtype"
    value {
      type: DT_FLOAT
    }
  }
  attr {
    key: "value"
    value {
      tensor {
        dtype: DT_FLOAT
        tensor_shape {
        }
        float_val: 1.0
      }
    }
  }
}
node {
  name: "lenet/sparse_softmax_cross_entropy_loss/num_present/broadcast_weights/ones_like"
  op: "Fill"
  input: "lenet/sparse_softmax_cross_entropy_loss/num_present/broadcast_weights/ones_like/Shape"
  input: "lenet/sparse_softmax_cross_entropy_loss/num_present/broadcast_weights/ones_like/Const"
  device: "/device:GPU:0"
  attr {
    key: "T"
    value {
      type: DT_FLOAT
    }
  }
  attr {
    key: "_output_shapes"
    value {
      list {
        shape {
          dim {
            size: 128
          }
        }
      }
    }
  }
  attr {
    key: "index_type"
    value {
      type: DT_INT32
    }
  }
}
node {
  name: "lenet/sparse_softmax_cross_entropy_loss/num_present/broadcast_weights"
  op: "Mul"
  input: "lenet/sparse_softmax_cross_entropy_loss/num_present/Select"
  input: "lenet/sparse_softmax_cross_entropy_loss/num_present/broadcast_weights/ones_like"
  device: "/device:GPU:0"
  attr {
    key: "T"
    value {
      type: DT_FLOAT
    }
  }
  attr {
    key: "_output_shapes"
    value {
      list {
        shape {
          dim {
            size: 128
          }
        }
      }
    }
  }
}
node {
  name: "lenet/sparse_softmax_cross_entropy_loss/num_present/Const"
  op: "Const"
  input: "^lenet/sparse_softmax_cross_entropy_loss/assert_broadcastable/static_scalar_check_success"
  device: "/device:GPU:0"
  attr {
    key: "_output_shapes"
    value {
      list {
        shape {
          dim {
            size: 1
          }
        }
      }
    }
  }
  attr {
    key: "dtype"
    value {
      type: DT_INT32
    }
  }
  attr {
    key: "value"
    value {
      tensor {
        dtype: DT_INT32
        tensor_shape {
          dim {
            size: 1
          }
        }
        int_val: 0
      }
    }
  }
}
node {
  name: "lenet/sparse_softmax_cross_entropy_loss/num_present"
  op: "Sum"
  input: "lenet/sparse_softmax_cross_entropy_loss/num_present/broadcast_weights"
  input: "lenet/sparse_softmax_cross_entropy_loss/num_present/Const"
  device: "/device:GPU:0"
  attr {
    key: "T"
    value {
      type: DT_FLOAT
    }
  }
  attr {
    key: "Tidx"
    value {
      type: DT_INT32
    }
  }
  attr {
    key: "_output_shapes"
    value {
      list {
        shape {
        }
      }
    }
  }
  attr {
    key: "keep_dims"
    value {
      b: false
    }
  }
}
node {
  name: "lenet/sparse_softmax_cross_entropy_loss/Const_2"
  op: "Const"
  input: "^lenet/sparse_softmax_cross_entropy_loss/assert_broadcastable/static_scalar_check_success"
  device: "/device:GPU:0"
  attr {
    key: "_output_shapes"
    value {
      list {
        shape {
          dim {
          }
        }
      }
    }
  }
  attr {
    key: "dtype"
    value {
      type: DT_INT32
    }
  }
  attr {
    key: "value"
    value {
      tensor {
        dtype: DT_INT32
        tensor_shape {
          dim {
          }
        }
      }
    }
  }
}
node {
  name: "lenet/sparse_softmax_cross_entropy_loss/Sum_1"
  op: "Sum"
  input: "lenet/sparse_softmax_cross_entropy_loss/Sum"
  input: "lenet/sparse_softmax_cross_entropy_loss/Const_2"
  device: "/device:GPU:0"
  attr {
    key: "T"
    value {
      type: DT_FLOAT
    }
  }
  attr {
    key: "Tidx"
    value {
      type: DT_INT32
    }
  }
  attr {
    key: "_output_shapes"
    value {
      list {
        shape {
        }
      }
    }
  }
  attr {
    key: "keep_dims"
    value {
      b: false
    }
  }
}
node {
  name: "lenet/sparse_softmax_cross_entropy_loss/value"
  op: "DivNoNan"
  input: "lenet/sparse_softmax_cross_entropy_loss/Sum_1"
  input: "lenet/sparse_softmax_cross_entropy_loss/num_present"
  device: "/device:GPU:0"
  attr {
    key: "T"
    value {
      type: DT_FLOAT
    }
  }
  attr {
    key: "_output_shapes"
    value {
      list {
        shape {
        }
      }
    }
  }
}
node {
  name: "lenet/Softmax"
  op: "Softmax"
  input: "lenet/fc2/dense/add"
  device: "/device:GPU:0"
  attr {
    key: "T"
    value {
      type: DT_FLOAT
    }
  }
  attr {
    key: "_output_shapes"
    value {
      list {
        shape {
          dim {
            size: 128
          }
          dim {
            size: 10
          }
        }
      }
    }
  }
}
node {
  name: "lenet/ArgMax/dimension"
  op: "Const"
  device: "/device:GPU:0"
  attr {
    key: "_output_shapes"
    value {
      list {
        shape {
        }
      }
    }
  }
  attr {
    key: "dtype"
    value {
      type: DT_INT32
    }
  }
  attr {
    key: "value"
    value {
      tensor {
        dtype: DT_INT32
        tensor_shape {
        }
        int_val: -1
      }
    }
  }
}
node {
  name: "lenet/ArgMax"
  op: "ArgMax"
  input: "lenet/Softmax"
  input: "lenet/ArgMax/dimension"
  device: "/device:GPU:0"
  attr {
    key: "T"
    value {
      type: DT_FLOAT
    }
  }
  attr {
    key: "Tidx"
    value {
      type: DT_INT32
    }
  }
  attr {
    key: "_output_shapes"
    value {
      list {
        shape {
          dim {
            size: 128
          }
        }
      }
    }
  }
  attr {
    key: "output_type"
    value {
      type: DT_INT32
    }
  }
}
node {
  name: "lenet/Equal"
  op: "Equal"
  input: "IteratorGetNext:1"
  input: "lenet/ArgMax"
  device: "/device:GPU:0"
  attr {
    key: "T"
    value {
      type: DT_INT32
    }
  }
  attr {
    key: "_output_shapes"
    value {
      list {
        shape {
          dim {
            size: 128
          }
        }
      }
    }
  }
}
node {
  name: "lenet/ToFloat"
  op: "Cast"
  input: "lenet/Equal"
  device: "/device:GPU:0"
  attr {
    key: "DstT"
    value {
      type: DT_FLOAT
    }
  }
  attr {
    key: "SrcT"
    value {
      type: DT_BOOL
    }
  }
  attr {
    key: "Truncate"
    value {
      b: false
    }
  }
  attr {
    key: "_output_shapes"
    value {
      list {
        shape {
          dim {
            size: 128
          }
        }
      }
    }
  }
}
node {
  name: "lenet/Const"
  op: "Const"
  device: "/device:GPU:0"
  attr {
    key: "_output_shapes"
    value {
      list {
        shape {
          dim {
            size: 1
          }
        }
      }
    }
  }
  attr {
    key: "dtype"
    value {
      type: DT_INT32
    }
  }
  attr {
    key: "value"
    value {
      tensor {
        dtype: DT_INT32
        tensor_shape {
          dim {
            size: 1
          }
        }
        int_val: 0
      }
    }
  }
}
node {
  name: "lenet/Mean"
  op: "Mean"
  input: "lenet/ToFloat"
  input: "lenet/Const"
  device: "/device:GPU:0"
  attr {
    key: "T"
    value {
      type: DT_FLOAT
    }
  }
  attr {
    key: "Tidx"
    value {
      type: DT_INT32
    }
  }
  attr {
    key: "_output_shapes"
    value {
      list {
        shape {
        }
      }
    }
  }
  attr {
    key: "keep_dims"
    value {
      b: false
    }
  }
}
node {
  name: "lenet/acc/tags"
  op: "Const"
  device: "/device:GPU:0"
  attr {
    key: "_output_shapes"
    value {
      list {
        shape {
        }
      }
    }
  }
  attr {
    key: "dtype"
    value {
      type: DT_STRING
    }
  }
  attr {
    key: "value"
    value {
      tensor {
        dtype: DT_STRING
        tensor_shape {
        }
        string_val: "lenet/acc"
      }
    }
  }
}
node {
  name: "lenet/acc"
  op: "ScalarSummary"
  input: "lenet/acc/tags"
  input: "lenet/Mean"
  device: "/device:GPU:0"
  attr {
    key: "T"
    value {
      type: DT_FLOAT
    }
  }
  attr {
    key: "_output_shapes"
    value {
      list {
        shape {
        }
      }
    }
  }
}
node {
  name: "lenet/loss/tags"
  op: "Const"
  device: "/device:GPU:0"
  attr {
    key: "_output_shapes"
    value {
      list {
        shape {
        }
      }
    }
  }
  attr {
    key: "dtype"
    value {
      type: DT_STRING
    }
  }
  attr {
    key: "value"
    value {
      tensor {
        dtype: DT_STRING
        tensor_shape {
        }
        string_val: "lenet/loss"
      }
    }
  }
}
node {
  name: "lenet/loss"
  op: "ScalarSummary"
  input: "lenet/loss/tags"
  input: "lenet/sparse_softmax_cross_entropy_loss/value"
  device: "/device:GPU:0"
  attr {
    key: "T"
    value {
      type: DT_FLOAT
    }
  }
  attr {
    key: "_output_shapes"
    value {
      list {
        shape {
        }
      }
    }
  }
}
node {
  name: "lenet/training/gradients/Shape"
  op: "Const"
  device: "/device:GPU:0"
  attr {
    key: "_class"
    value {
      list {
        s: "loc:@lenet/sparse_softmax_cross_entropy_loss/value"
      }
    }
  }
  attr {
    key: "_output_shapes"
    value {
      list {
        shape {
          dim {
          }
        }
      }
    }
  }
  attr {
    key: "dtype"
    value {
      type: DT_INT32
    }
  }
  attr {
    key: "value"
    value {
      tensor {
        dtype: DT_INT32
        tensor_shape {
          dim {
          }
        }
      }
    }
  }
}
node {
  name: "lenet/training/gradients/grad_ys_0"
  op: "Const"
  device: "/device:GPU:0"
  attr {
    key: "_class"
    value {
      list {
        s: "loc:@lenet/sparse_softmax_cross_entropy_loss/value"
      }
    }
  }
  attr {
    key: "_output_shapes"
    value {
      list {
        shape {
        }
      }
    }
  }
  attr {
    key: "dtype"
    value {
      type: DT_FLOAT
    }
  }
  attr {
    key: "value"
    value {
      tensor {
        dtype: DT_FLOAT
        tensor_shape {
        }
        float_val: 1.0
      }
    }
  }
}
node {
  name: "lenet/training/gradients/Fill"
  op: "Fill"
  input: "lenet/training/gradients/Shape"
  input: "lenet/training/gradients/grad_ys_0"
  device: "/device:GPU:0"
  attr {
    key: "T"
    value {
      type: DT_FLOAT
    }
  }
  attr {
    key: "_class"
    value {
      list {
        s: "loc:@lenet/sparse_softmax_cross_entropy_loss/value"
      }
    }
  }
  attr {
    key: "_output_shapes"
    value {
      list {
        shape {
        }
      }
    }
  }
  attr {
    key: "index_type"
    value {
      type: DT_INT32
    }
  }
}
node {
  name: "lenet/training/gradients/lenet/sparse_softmax_cross_entropy_loss/value_grad/Shape"
  op: "Const"
  device: "/device:GPU:0"
  attr {
    key: "_class"
    value {
      list {
        s: "loc:@lenet/sparse_softmax_cross_entropy_loss/value"
      }
    }
  }
  attr {
    key: "_output_shapes"
    value {
      list {
        shape {
          dim {
          }
        }
      }
    }
  }
  attr {
    key: "dtype"
    value {
      type: DT_INT32
    }
  }
  attr {
    key: "value"
    value {
      tensor {
        dtype: DT_INT32
        tensor_shape {
          dim {
          }
        }
      }
    }
  }
}
node {
  name: "lenet/training/gradients/lenet/sparse_softmax_cross_entropy_loss/value_grad/Shape_1"
  op: "Const"
  device: "/device:GPU:0"
  attr {
    key: "_class"
    value {
      list {
        s: "loc:@lenet/sparse_softmax_cross_entropy_loss/value"
      }
    }
  }
  attr {
    key: "_output_shapes"
    value {
      list {
        shape {
          dim {
          }
        }
      }
    }
  }
  attr {
    key: "dtype"
    value {
      type: DT_INT32
    }
  }
  attr {
    key: "value"
    value {
      tensor {
        dtype: DT_INT32
        tensor_shape {
          dim {
          }
        }
      }
    }
  }
}
node {
  name: "lenet/training/gradients/lenet/sparse_softmax_cross_entropy_loss/value_grad/BroadcastGradientArgs"
  op: "BroadcastGradientArgs"
  input: "lenet/training/gradients/lenet/sparse_softmax_cross_entropy_loss/value_grad/Shape"
  input: "lenet/training/gradients/lenet/sparse_softmax_cross_entropy_loss/value_grad/Shape_1"
  device: "/device:GPU:0"
  attr {
    key: "T"
    value {
      type: DT_INT32
    }
  }
  attr {
    key: "_class"
    value {
      list {
        s: "loc:@lenet/sparse_softmax_cross_entropy_loss/value"
      }
    }
  }
  attr {
    key: "_output_shapes"
    value {
      list {
        shape {
          dim {
            size: -1
          }
        }
        shape {
          dim {
            size: -1
          }
        }
      }
    }
  }
}
node {
  name: "lenet/training/gradients/lenet/sparse_softmax_cross_entropy_loss/value_grad/div_no_nan"
  op: "DivNoNan"
  input: "lenet/training/gradients/Fill"
  input: "lenet/sparse_softmax_cross_entropy_loss/num_present"
  device: "/device:GPU:0"
  attr {
    key: "T"
    value {
      type: DT_FLOAT
    }
  }
  attr {
    key: "_class"
    value {
      list {
        s: "loc:@lenet/sparse_softmax_cross_entropy_loss/value"
      }
    }
  }
  attr {
    key: "_output_shapes"
    value {
      list {
        shape {
        }
      }
    }
  }
}
node {
  name: "lenet/training/gradients/lenet/sparse_softmax_cross_entropy_loss/value_grad/Sum"
  op: "Sum"
  input: "lenet/training/gradients/lenet/sparse_softmax_cross_entropy_loss/value_grad/div_no_nan"
  input: "lenet/training/gradients/lenet/sparse_softmax_cross_entropy_loss/value_grad/BroadcastGradientArgs"
  device: "/device:GPU:0"
  attr {
    key: "T"
    value {
      type: DT_FLOAT
    }
  }
  attr {
    key: "Tidx"
    value {
      type: DT_INT32
    }
  }
  attr {
    key: "_class"
    value {
      list {
        s: "loc:@lenet/sparse_softmax_cross_entropy_loss/value"
      }
    }
  }
  attr {
    key: "_output_shapes"
    value {
      list {
        shape {
        }
      }
    }
  }
  attr {
    key: "keep_dims"
    value {
      b: false
    }
  }
}
node {
  name: "lenet/training/gradients/lenet/sparse_softmax_cross_entropy_loss/value_grad/Reshape"
  op: "Reshape"
  input: "lenet/training/gradients/lenet/sparse_softmax_cross_entropy_loss/value_grad/Sum"
  input: "lenet/training/gradients/lenet/sparse_softmax_cross_entropy_loss/value_grad/Shape"
  device: "/device:GPU:0"
  attr {
    key: "T"
    value {
      type: DT_FLOAT
    }
  }
  attr {
    key: "Tshape"
    value {
      type: DT_INT32
    }
  }
  attr {
    key: "_class"
    value {
      list {
        s: "loc:@lenet/sparse_softmax_cross_entropy_loss/value"
      }
    }
  }
  attr {
    key: "_output_shapes"
    value {
      list {
        shape {
        }
      }
    }
  }
}
node {
  name: "lenet/training/gradients/lenet/sparse_softmax_cross_entropy_loss/value_grad/Neg"
  op: "Neg"
  input: "lenet/sparse_softmax_cross_entropy_loss/Sum_1"
  device: "/device:GPU:0"
  attr {
    key: "T"
    value {
      type: DT_FLOAT
    }
  }
  attr {
    key: "_class"
    value {
      list {
        s: "loc:@lenet/sparse_softmax_cross_entropy_loss/value"
      }
    }
  }
  attr {
    key: "_output_shapes"
    value {
      list {
        shape {
        }
      }
    }
  }
}
node {
  name: "lenet/training/gradients/lenet/sparse_softmax_cross_entropy_loss/value_grad/div_no_nan_1"
  op: "DivNoNan"
  input: "lenet/training/gradients/lenet/sparse_softmax_cross_entropy_loss/value_grad/Neg"
  input: "lenet/sparse_softmax_cross_entropy_loss/num_present"
  device: "/device:GPU:0"
  attr {
    key: "T"
    value {
      type: DT_FLOAT
    }
  }
  attr {
    key: "_class"
    value {
      list {
        s: "loc:@lenet/sparse_softmax_cross_entropy_loss/value"
      }
    }
  }
  attr {
    key: "_output_shapes"
    value {
      list {
        shape {
        }
      }
    }
  }
}
node {
  name: "lenet/training/gradients/lenet/sparse_softmax_cross_entropy_loss/value_grad/div_no_nan_2"
  op: "DivNoNan"
  input: "lenet/training/gradients/lenet/sparse_softmax_cross_entropy_loss/value_grad/div_no_nan_1"
  input: "lenet/sparse_softmax_cross_entropy_loss/num_present"
  device: "/device:GPU:0"
  attr {
    key: "T"
    value {
      type: DT_FLOAT
    }
  }
  attr {
    key: "_class"
    value {
      list {
        s: "loc:@lenet/sparse_softmax_cross_entropy_loss/value"
      }
    }
  }
  attr {
    key: "_output_shapes"
    value {
      list {
        shape {
        }
      }
    }
  }
}
node {
  name: "lenet/training/gradients/lenet/sparse_softmax_cross_entropy_loss/value_grad/mul"
  op: "Mul"
  input: "lenet/training/gradients/Fill"
  input: "lenet/training/gradients/lenet/sparse_softmax_cross_entropy_loss/value_grad/div_no_nan_2"
  device: "/device:GPU:0"
  attr {
    key: "T"
    value {
      type: DT_FLOAT
    }
  }
  attr {
    key: "_class"
    value {
      list {
        s: "loc:@lenet/sparse_softmax_cross_entropy_loss/value"
      }
    }
  }
  attr {
    key: "_output_shapes"
    value {
      list {
        shape {
        }
      }
    }
  }
}
node {
  name: "lenet/training/gradients/lenet/sparse_softmax_cross_entropy_loss/value_grad/Sum_1"
  op: "Sum"
  input: "lenet/training/gradients/lenet/sparse_softmax_cross_entropy_loss/value_grad/mul"
  input: "lenet/training/gradients/lenet/sparse_softmax_cross_entropy_loss/value_grad/BroadcastGradientArgs:1"
  device: "/device:GPU:0"
  attr {
    key: "T"
    value {
      type: DT_FLOAT
    }
  }
  attr {
    key: "Tidx"
    value {
      type: DT_INT32
    }
  }
  attr {
    key: "_class"
    value {
      list {
        s: "loc:@lenet/sparse_softmax_cross_entropy_loss/value"
      }
    }
  }
  attr {
    key: "_output_shapes"
    value {
      list {
        shape {
        }
      }
    }
  }
  attr {
    key: "keep_dims"
    value {
      b: false
    }
  }
}
node {
  name: "lenet/training/gradients/lenet/sparse_softmax_cross_entropy_loss/value_grad/Reshape_1"
  op: "Reshape"
  input: "lenet/training/gradients/lenet/sparse_softmax_cross_entropy_loss/value_grad/Sum_1"
  input: "lenet/training/gradients/lenet/sparse_softmax_cross_entropy_loss/value_grad/Shape_1"
  device: "/device:GPU:0"
  attr {
    key: "T"
    value {
      type: DT_FLOAT
    }
  }
  attr {
    key: "Tshape"
    value {
      type: DT_INT32
    }
  }
  attr {
    key: "_class"
    value {
      list {
        s: "loc:@lenet/sparse_softmax_cross_entropy_loss/value"
      }
    }
  }
  attr {
    key: "_output_shapes"
    value {
      list {
        shape {
        }
      }
    }
  }
}
node {
  name: "lenet/training/gradients/lenet/sparse_softmax_cross_entropy_loss/value_grad/tuple/group_deps"
  op: "NoOp"
  input: "^lenet/training/gradients/lenet/sparse_softmax_cross_entropy_loss/value_grad/Reshape"
  input: "^lenet/training/gradients/lenet/sparse_softmax_cross_entropy_loss/value_grad/Reshape_1"
  device: "/device:GPU:0"
}
node {
  name: "lenet/training/gradients/lenet/sparse_softmax_cross_entropy_loss/value_grad/tuple/control_dependency"
  op: "Identity"
  input: "lenet/training/gradients/lenet/sparse_softmax_cross_entropy_loss/value_grad/Reshape"
  input: "^lenet/training/gradients/lenet/sparse_softmax_cross_entropy_loss/value_grad/tuple/group_deps"
  device: "/device:GPU:0"
  attr {
    key: "T"
    value {
      type: DT_FLOAT
    }
  }
  attr {
    key: "_class"
    value {
      list {
        s: "loc:@lenet/sparse_softmax_cross_entropy_loss/value"
      }
    }
  }
  attr {
    key: "_output_shapes"
    value {
      list {
        shape {
        }
      }
    }
  }
}
node {
  name: "lenet/training/gradients/lenet/sparse_softmax_cross_entropy_loss/value_grad/tuple/control_dependency_1"
  op: "Identity"
  input: "lenet/training/gradients/lenet/sparse_softmax_cross_entropy_loss/value_grad/Reshape_1"
  input: "^lenet/training/gradients/lenet/sparse_softmax_cross_entropy_loss/value_grad/tuple/group_deps"
  device: "/device:GPU:0"
  attr {
    key: "T"
    value {
      type: DT_FLOAT
    }
  }
  attr {
    key: "_class"
    value {
      list {
        s: "loc:@lenet/sparse_softmax_cross_entropy_loss/value"
      }
    }
  }
  attr {
    key: "_output_shapes"
    value {
      list {
        shape {
        }
      }
    }
  }
}
node {
  name: "lenet/training/gradients/lenet/sparse_softmax_cross_entropy_loss/Sum_1_grad/Reshape/shape"
  op: "Const"
  device: "/device:GPU:0"
  attr {
    key: "_class"
    value {
      list {
        s: "loc:@lenet/sparse_softmax_cross_entropy_loss/Sum_1"
      }
    }
  }
  attr {
    key: "_output_shapes"
    value {
      list {
        shape {
          dim {
          }
        }
      }
    }
  }
  attr {
    key: "dtype"
    value {
      type: DT_INT32
    }
  }
  attr {
    key: "value"
    value {
      tensor {
        dtype: DT_INT32
        tensor_shape {
          dim {
          }
        }
      }
    }
  }
}
node {
  name: "lenet/training/gradients/lenet/sparse_softmax_cross_entropy_loss/Sum_1_grad/Reshape"
  op: "Reshape"
  input: "lenet/training/gradients/lenet/sparse_softmax_cross_entropy_loss/value_grad/tuple/control_dependency"
  input: "lenet/training/gradients/lenet/sparse_softmax_cross_entropy_loss/Sum_1_grad/Reshape/shape"
  device: "/device:GPU:0"
  attr {
    key: "T"
    value {
      type: DT_FLOAT
    }
  }
  attr {
    key: "Tshape"
    value {
      type: DT_INT32
    }
  }
  attr {
    key: "_class"
    value {
      list {
        s: "loc:@lenet/sparse_softmax_cross_entropy_loss/Sum_1"
      }
    }
  }
  attr {
    key: "_output_shapes"
    value {
      list {
        shape {
        }
      }
    }
  }
}
node {
  name: "lenet/training/gradients/lenet/sparse_softmax_cross_entropy_loss/Sum_1_grad/Const"
  op: "Const"
  device: "/device:GPU:0"
  attr {
    key: "_class"
    value {
      list {
        s: "loc:@lenet/sparse_softmax_cross_entropy_loss/Sum_1"
      }
    }
  }
  attr {
    key: "_output_shapes"
    value {
      list {
        shape {
          dim {
          }
        }
      }
    }
  }
  attr {
    key: "dtype"
    value {
      type: DT_INT32
    }
  }
  attr {
    key: "value"
    value {
      tensor {
        dtype: DT_INT32
        tensor_shape {
          dim {
          }
        }
      }
    }
  }
}
node {
  name: "lenet/training/gradients/lenet/sparse_softmax_cross_entropy_loss/Sum_1_grad/Tile"
  op: "Tile"
  input: "lenet/training/gradients/lenet/sparse_softmax_cross_entropy_loss/Sum_1_grad/Reshape"
  input: "lenet/training/gradients/lenet/sparse_softmax_cross_entropy_loss/Sum_1_grad/Const"
  device: "/device:GPU:0"
  attr {
    key: "T"
    value {
      type: DT_FLOAT
    }
  }
  attr {
    key: "Tmultiples"
    value {
      type: DT_INT32
    }
  }
  attr {
    key: "_class"
    value {
      list {
        s: "loc:@lenet/sparse_softmax_cross_entropy_loss/Sum_1"
      }
    }
  }
  attr {
    key: "_output_shapes"
    value {
      list {
        shape {
        }
      }
    }
  }
}
node {
  name: "lenet/training/gradients/lenet/sparse_softmax_cross_entropy_loss/Sum_grad/Reshape/shape"
  op: "Const"
  device: "/device:GPU:0"
  attr {
    key: "_class"
    value {
      list {
        s: "loc:@lenet/sparse_softmax_cross_entropy_loss/Sum"
      }
    }
  }
  attr {
    key: "_output_shapes"
    value {
      list {
        shape {
          dim {
            size: 1
          }
        }
      }
    }
  }
  attr {
    key: "dtype"
    value {
      type: DT_INT32
    }
  }
  attr {
    key: "value"
    value {
      tensor {
        dtype: DT_INT32
        tensor_shape {
          dim {
            size: 1
          }
        }
        int_val: 1
      }
    }
  }
}
node {
  name: "lenet/training/gradients/lenet/sparse_softmax_cross_entropy_loss/Sum_grad/Reshape"
  op: "Reshape"
  input: "lenet/training/gradients/lenet/sparse_softmax_cross_entropy_loss/Sum_1_grad/Tile"
  input: "lenet/training/gradients/lenet/sparse_softmax_cross_entropy_loss/Sum_grad/Reshape/shape"
  device: "/device:GPU:0"
  attr {
    key: "T"
    value {
      type: DT_FLOAT
    }
  }
  attr {
    key: "Tshape"
    value {
      type: DT_INT32
    }
  }
  attr {
    key: "_class"
    value {
      list {
        s: "loc:@lenet/sparse_softmax_cross_entropy_loss/Sum"
      }
    }
  }
  attr {
    key: "_output_shapes"
    value {
      list {
        shape {
          dim {
            size: 1
          }
        }
      }
    }
  }
}
node {
  name: "lenet/training/gradients/lenet/sparse_softmax_cross_entropy_loss/Sum_grad/Const"
  op: "Const"
  device: "/device:GPU:0"
  attr {
    key: "_class"
    value {
      list {
        s: "loc:@lenet/sparse_softmax_cross_entropy_loss/Sum"
      }
    }
  }
  attr {
    key: "_output_shapes"
    value {
      list {
        shape {
          dim {
            size: 1
          }
        }
      }
    }
  }
  attr {
    key: "dtype"
    value {
      type: DT_INT32
    }
  }
  attr {
    key: "value"
    value {
      tensor {
        dtype: DT_INT32
        tensor_shape {
          dim {
            size: 1
          }
        }
        int_val: 128
      }
    }
  }
}
node {
  name: "lenet/training/gradients/lenet/sparse_softmax_cross_entropy_loss/Sum_grad/Tile"
  op: "Tile"
  input: "lenet/training/gradients/lenet/sparse_softmax_cross_entropy_loss/Sum_grad/Reshape"
  input: "lenet/training/gradients/lenet/sparse_softmax_cross_entropy_loss/Sum_grad/Const"
  device: "/device:GPU:0"
  attr {
    key: "T"
    value {
      type: DT_FLOAT
    }
  }
  attr {
    key: "Tmultiples"
    value {
      type: DT_INT32
    }
  }
  attr {
    key: "_class"
    value {
      list {
        s: "loc:@lenet/sparse_softmax_cross_entropy_loss/Sum"
      }
    }
  }
  attr {
    key: "_output_shapes"
    value {
      list {
        shape {
          dim {
            size: 128
          }
        }
      }
    }
  }
}
node {
  name: "lenet/training/gradients/lenet/sparse_softmax_cross_entropy_loss/Mul_grad/Shape"
  op: "Const"
  device: "/device:GPU:0"
  attr {
    key: "_class"
    value {
      list {
        s: "loc:@lenet/sparse_softmax_cross_entropy_loss/Mul"
      }
    }
  }
  attr {
    key: "_output_shapes"
    value {
      list {
        shape {
          dim {
            size: 1
          }
        }
      }
    }
  }
  attr {
    key: "dtype"
    value {
      type: DT_INT32
    }
  }
  attr {
    key: "value"
    value {
      tensor {
        dtype: DT_INT32
        tensor_shape {
          dim {
            size: 1
          }
        }
        int_val: 128
      }
    }
  }
}
node {
  name: "lenet/training/gradients/lenet/sparse_softmax_cross_entropy_loss/Mul_grad/Shape_1"
  op: "Const"
  device: "/device:GPU:0"
  attr {
    key: "_class"
    value {
      list {
        s: "loc:@lenet/sparse_softmax_cross_entropy_loss/Mul"
      }
    }
  }
  attr {
    key: "_output_shapes"
    value {
      list {
        shape {
          dim {
          }
        }
      }
    }
  }
  attr {
    key: "dtype"
    value {
      type: DT_INT32
    }
  }
  attr {
    key: "value"
    value {
      tensor {
        dtype: DT_INT32
        tensor_shape {
          dim {
          }
        }
      }
    }
  }
}
node {
  name: "lenet/training/gradients/lenet/sparse_softmax_cross_entropy_loss/Mul_grad/BroadcastGradientArgs"
  op: "BroadcastGradientArgs"
  input: "lenet/training/gradients/lenet/sparse_softmax_cross_entropy_loss/Mul_grad/Shape"
  input: "lenet/training/gradients/lenet/sparse_softmax_cross_entropy_loss/Mul_grad/Shape_1"
  device: "/device:GPU:0"
  attr {
    key: "T"
    value {
      type: DT_INT32
    }
  }
  attr {
    key: "_class"
    value {
      list {
        s: "loc:@lenet/sparse_softmax_cross_entropy_loss/Mul"
      }
    }
  }
  attr {
    key: "_output_shapes"
    value {
      list {
        shape {
          dim {
            size: -1
          }
        }
        shape {
          dim {
            size: -1
          }
        }
      }
    }
  }
}
node {
  name: "lenet/training/gradients/lenet/sparse_softmax_cross_entropy_loss/Mul_grad/Mul"
  op: "Mul"
  input: "lenet/training/gradients/lenet/sparse_softmax_cross_entropy_loss/Sum_grad/Tile"
  input: "lenet/sparse_softmax_cross_entropy_loss/Const"
  device: "/device:GPU:0"
  attr {
    key: "T"
    value {
      type: DT_FLOAT
    }
  }
  attr {
    key: "_class"
    value {
      list {
        s: "loc:@lenet/sparse_softmax_cross_entropy_loss/Mul"
      }
    }
  }
  attr {
    key: "_output_shapes"
    value {
      list {
        shape {
          dim {
            size: 128
          }
        }
      }
    }
  }
}
node {
  name: "lenet/training/gradients/lenet/sparse_softmax_cross_entropy_loss/Mul_grad/Sum"
  op: "Sum"
  input: "lenet/training/gradients/lenet/sparse_softmax_cross_entropy_loss/Mul_grad/Mul"
  input: "lenet/training/gradients/lenet/sparse_softmax_cross_entropy_loss/Mul_grad/BroadcastGradientArgs"
  device: "/device:GPU:0"
  attr {
    key: "T"
    value {
      type: DT_FLOAT
    }
  }
  attr {
    key: "Tidx"
    value {
      type: DT_INT32
    }
  }
  attr {
    key: "_class"
    value {
      list {
        s: "loc:@lenet/sparse_softmax_cross_entropy_loss/Mul"
      }
    }
  }
  attr {
    key: "_output_shapes"
    value {
      list {
        shape {
          dim {
            size: 128
          }
        }
      }
    }
  }
  attr {
    key: "keep_dims"
    value {
      b: false
    }
  }
}
node {
  name: "lenet/training/gradients/lenet/sparse_softmax_cross_entropy_loss/Mul_grad/Reshape"
  op: "Reshape"
  input: "lenet/training/gradients/lenet/sparse_softmax_cross_entropy_loss/Mul_grad/Sum"
  input: "lenet/training/gradients/lenet/sparse_softmax_cross_entropy_loss/Mul_grad/Shape"
  device: "/device:GPU:0"
  attr {
    key: "T"
    value {
      type: DT_FLOAT
    }
  }
  attr {
    key: "Tshape"
    value {
      type: DT_INT32
    }
  }
  attr {
    key: "_class"
    value {
      list {
        s: "loc:@lenet/sparse_softmax_cross_entropy_loss/Mul"
      }
    }
  }
  attr {
    key: "_output_shapes"
    value {
      list {
        shape {
          dim {
            size: 128
          }
        }
      }
    }
  }
}
node {
  name: "lenet/training/gradients/lenet/sparse_softmax_cross_entropy_loss/Mul_grad/Mul_1"
  op: "Mul"
  input: "lenet/sparse_softmax_cross_entropy_loss/xentropy/xentropy"
  input: "lenet/training/gradients/lenet/sparse_softmax_cross_entropy_loss/Sum_grad/Tile"
  device: "/device:GPU:0"
  attr {
    key: "T"
    value {
      type: DT_FLOAT
    }
  }
  attr {
    key: "_class"
    value {
      list {
        s: "loc:@lenet/sparse_softmax_cross_entropy_loss/Mul"
      }
    }
  }
  attr {
    key: "_output_shapes"
    value {
      list {
        shape {
          dim {
            size: 128
          }
        }
      }
    }
  }
}
node {
  name: "lenet/training/gradients/lenet/sparse_softmax_cross_entropy_loss/Mul_grad/Sum_1"
  op: "Sum"
  input: "lenet/training/gradients/lenet/sparse_softmax_cross_entropy_loss/Mul_grad/Mul_1"
  input: "lenet/training/gradients/lenet/sparse_softmax_cross_entropy_loss/Mul_grad/BroadcastGradientArgs:1"
  device: "/device:GPU:0"
  attr {
    key: "T"
    value {
      type: DT_FLOAT
    }
  }
  attr {
    key: "Tidx"
    value {
      type: DT_INT32
    }
  }
  attr {
    key: "_class"
    value {
      list {
        s: "loc:@lenet/sparse_softmax_cross_entropy_loss/Mul"
      }
    }
  }
  attr {
    key: "_output_shapes"
    value {
      list {
        shape {
        }
      }
    }
  }
  attr {
    key: "keep_dims"
    value {
      b: false
    }
  }
}
node {
  name: "lenet/training/gradients/lenet/sparse_softmax_cross_entropy_loss/Mul_grad/Reshape_1"
  op: "Reshape"
  input: "lenet/training/gradients/lenet/sparse_softmax_cross_entropy_loss/Mul_grad/Sum_1"
  input: "lenet/training/gradients/lenet/sparse_softmax_cross_entropy_loss/Mul_grad/Shape_1"
  device: "/device:GPU:0"
  attr {
    key: "T"
    value {
      type: DT_FLOAT
    }
  }
  attr {
    key: "Tshape"
    value {
      type: DT_INT32
    }
  }
  attr {
    key: "_class"
    value {
      list {
        s: "loc:@lenet/sparse_softmax_cross_entropy_loss/Mul"
      }
    }
  }
  attr {
    key: "_output_shapes"
    value {
      list {
        shape {
        }
      }
    }
  }
}
node {
  name: "lenet/training/gradients/lenet/sparse_softmax_cross_entropy_loss/Mul_grad/tuple/group_deps"
  op: "NoOp"
  input: "^lenet/training/gradients/lenet/sparse_softmax_cross_entropy_loss/Mul_grad/Reshape"
  input: "^lenet/training/gradients/lenet/sparse_softmax_cross_entropy_loss/Mul_grad/Reshape_1"
  device: "/device:GPU:0"
}
node {
  name: "lenet/training/gradients/lenet/sparse_softmax_cross_entropy_loss/Mul_grad/tuple/control_dependency"
  op: "Identity"
  input: "lenet/training/gradients/lenet/sparse_softmax_cross_entropy_loss/Mul_grad/Reshape"
  input: "^lenet/training/gradients/lenet/sparse_softmax_cross_entropy_loss/Mul_grad/tuple/group_deps"
  device: "/device:GPU:0"
  attr {
    key: "T"
    value {
      type: DT_FLOAT
    }
  }
  attr {
    key: "_class"
    value {
      list {
        s: "loc:@lenet/sparse_softmax_cross_entropy_loss/Mul"
      }
    }
  }
  attr {
    key: "_output_shapes"
    value {
      list {
        shape {
          dim {
            size: 128
          }
        }
      }
    }
  }
}
node {
  name: "lenet/training/gradients/lenet/sparse_softmax_cross_entropy_loss/Mul_grad/tuple/control_dependency_1"
  op: "Identity"
  input: "lenet/training/gradients/lenet/sparse_softmax_cross_entropy_loss/Mul_grad/Reshape_1"
  input: "^lenet/training/gradients/lenet/sparse_softmax_cross_entropy_loss/Mul_grad/tuple/group_deps"
  device: "/device:GPU:0"
  attr {
    key: "T"
    value {
      type: DT_FLOAT
    }
  }
  attr {
    key: "_class"
    value {
      list {
        s: "loc:@lenet/sparse_softmax_cross_entropy_loss/Mul"
      }
    }
  }
  attr {
    key: "_output_shapes"
    value {
      list {
        shape {
        }
      }
    }
  }
}
node {
  name: "lenet/training/gradients/zeros_like"
  op: "ZerosLike"
  input: "lenet/sparse_softmax_cross_entropy_loss/xentropy/xentropy:1"
  device: "/device:GPU:0"
  attr {
    key: "T"
    value {
      type: DT_FLOAT
    }
  }
  attr {
    key: "_class"
    value {
      list {
        s: "loc:@lenet/sparse_softmax_cross_entropy_loss/xentropy/xentropy"
      }
    }
  }
  attr {
    key: "_output_shapes"
    value {
      list {
        shape {
          dim {
            size: 128
          }
          dim {
            size: 10
          }
        }
      }
    }
  }
}
node {
  name: "lenet/training/gradients/lenet/sparse_softmax_cross_entropy_loss/xentropy/xentropy_grad/PreventGradient"
  op: "PreventGradient"
  input: "lenet/sparse_softmax_cross_entropy_loss/xentropy/xentropy:1"
  device: "/device:GPU:0"
  attr {
    key: "T"
    value {
      type: DT_FLOAT
    }
  }
  attr {
    key: "_class"
    value {
      list {
        s: "loc:@lenet/sparse_softmax_cross_entropy_loss/xentropy/xentropy"
      }
    }
  }
  attr {
    key: "_output_shapes"
    value {
      list {
        shape {
          dim {
            size: 128
          }
          dim {
            size: 10
          }
        }
      }
    }
  }
  attr {
    key: "message"
    value {
      s: "Currently there is no way to take the second derivative of sparse_softmax_cross_entropy_with_logits due to the fused implementation\'s interaction with tf.gradients()"
    }
  }
}
node {
  name: "lenet/training/gradients/lenet/sparse_softmax_cross_entropy_loss/xentropy/xentropy_grad/ExpandDims/dim"
  op: "Const"
  device: "/device:GPU:0"
  attr {
    key: "_class"
    value {
      list {
        s: "loc:@lenet/sparse_softmax_cross_entropy_loss/xentropy/xentropy"
      }
    }
  }
  attr {
    key: "_output_shapes"
    value {
      list {
        shape {
        }
      }
    }
  }
  attr {
    key: "dtype"
    value {
      type: DT_INT32
    }
  }
  attr {
    key: "value"
    value {
      tensor {
        dtype: DT_INT32
        tensor_shape {
        }
        int_val: -1
      }
    }
  }
}
node {
  name: "lenet/training/gradients/lenet/sparse_softmax_cross_entropy_loss/xentropy/xentropy_grad/ExpandDims"
  op: "ExpandDims"
  input: "lenet/training/gradients/lenet/sparse_softmax_cross_entropy_loss/Mul_grad/tuple/control_dependency"
  input: "lenet/training/gradients/lenet/sparse_softmax_cross_entropy_loss/xentropy/xentropy_grad/ExpandDims/dim"
  device: "/device:GPU:0"
  attr {
    key: "T"
    value {
      type: DT_FLOAT
    }
  }
  attr {
    key: "Tdim"
    value {
      type: DT_INT32
    }
  }
  attr {
    key: "_class"
    value {
      list {
        s: "loc:@lenet/sparse_softmax_cross_entropy_loss/xentropy/xentropy"
      }
    }
  }
  attr {
    key: "_output_shapes"
    value {
      list {
        shape {
          dim {
            size: 128
          }
          dim {
            size: 1
          }
        }
      }
    }
  }
}
node {
  name: "lenet/training/gradients/lenet/sparse_softmax_cross_entropy_loss/xentropy/xentropy_grad/mul"
  op: "Mul"
  input: "lenet/training/gradients/lenet/sparse_softmax_cross_entropy_loss/xentropy/xentropy_grad/ExpandDims"
  input: "lenet/training/gradients/lenet/sparse_softmax_cross_entropy_loss/xentropy/xentropy_grad/PreventGradient"
  device: "/device:GPU:0"
  attr {
    key: "T"
    value {
      type: DT_FLOAT
    }
  }
  attr {
    key: "_class"
    value {
      list {
        s: "loc:@lenet/sparse_softmax_cross_entropy_loss/xentropy/xentropy"
      }
    }
  }
  attr {
    key: "_output_shapes"
    value {
      list {
        shape {
          dim {
            size: 128
          }
          dim {
            size: 10
          }
        }
      }
    }
  }
}
node {
  name: "lenet/training/gradients/lenet/fc2/dense/add_grad/Shape"
  op: "Const"
  device: "/device:GPU:0"
  attr {
    key: "_class"
    value {
      list {
        s: "loc:@lenet/fc2/dense/add"
      }
    }
  }
  attr {
    key: "_output_shapes"
    value {
      list {
        shape {
          dim {
            size: 2
          }
        }
      }
    }
  }
  attr {
    key: "dtype"
    value {
      type: DT_INT32
    }
  }
  attr {
    key: "value"
    value {
      tensor {
        dtype: DT_INT32
        tensor_shape {
          dim {
            size: 2
          }
        }
        tensor_content: "\200\000\000\000\n\000\000\000"
      }
    }
  }
}
node {
  name: "lenet/training/gradients/lenet/fc2/dense/add_grad/Shape_1"
  op: "Const"
  device: "/device:GPU:0"
  attr {
    key: "_class"
    value {
      list {
        s: "loc:@lenet/fc2/dense/add"
      }
    }
  }
  attr {
    key: "_output_shapes"
    value {
      list {
        shape {
          dim {
            size: 1
          }
        }
      }
    }
  }
  attr {
    key: "dtype"
    value {
      type: DT_INT32
    }
  }
  attr {
    key: "value"
    value {
      tensor {
        dtype: DT_INT32
        tensor_shape {
          dim {
            size: 1
          }
        }
        int_val: 10
      }
    }
  }
}
node {
  name: "lenet/training/gradients/lenet/fc2/dense/add_grad/BroadcastGradientArgs"
  op: "BroadcastGradientArgs"
  input: "lenet/training/gradients/lenet/fc2/dense/add_grad/Shape"
  input: "lenet/training/gradients/lenet/fc2/dense/add_grad/Shape_1"
  device: "/device:GPU:0"
  attr {
    key: "T"
    value {
      type: DT_INT32
    }
  }
  attr {
    key: "_class"
    value {
      list {
        s: "loc:@lenet/fc2/dense/add"
      }
    }
  }
  attr {
    key: "_output_shapes"
    value {
      list {
        shape {
          dim {
            size: -1
          }
        }
        shape {
          dim {
            size: -1
          }
        }
      }
    }
  }
}
node {
  name: "lenet/training/gradients/lenet/fc2/dense/add_grad/Sum"
  op: "Sum"
  input: "lenet/training/gradients/lenet/sparse_softmax_cross_entropy_loss/xentropy/xentropy_grad/mul"
  input: "lenet/training/gradients/lenet/fc2/dense/add_grad/BroadcastGradientArgs"
  device: "/device:GPU:0"
  attr {
    key: "T"
    value {
      type: DT_FLOAT
    }
  }
  attr {
    key: "Tidx"
    value {
      type: DT_INT32
    }
  }
  attr {
    key: "_class"
    value {
      list {
        s: "loc:@lenet/fc2/dense/add"
      }
    }
  }
  attr {
    key: "_output_shapes"
    value {
      list {
        shape {
          dim {
            size: 128
          }
          dim {
            size: 10
          }
        }
      }
    }
  }
  attr {
    key: "keep_dims"
    value {
      b: false
    }
  }
}
node {
  name: "lenet/training/gradients/lenet/fc2/dense/add_grad/Reshape"
  op: "Reshape"
  input: "lenet/training/gradients/lenet/fc2/dense/add_grad/Sum"
  input: "lenet/training/gradients/lenet/fc2/dense/add_grad/Shape"
  device: "/device:GPU:0"
  attr {
    key: "T"
    value {
      type: DT_FLOAT
    }
  }
  attr {
    key: "Tshape"
    value {
      type: DT_INT32
    }
  }
  attr {
    key: "_class"
    value {
      list {
        s: "loc:@lenet/fc2/dense/add"
      }
    }
  }
  attr {
    key: "_output_shapes"
    value {
      list {
        shape {
          dim {
            size: 128
          }
          dim {
            size: 10
          }
        }
      }
    }
  }
}
node {
  name: "lenet/training/gradients/lenet/fc2/dense/add_grad/Sum_1"
  op: "Sum"
  input: "lenet/training/gradients/lenet/sparse_softmax_cross_entropy_loss/xentropy/xentropy_grad/mul"
  input: "lenet/training/gradients/lenet/fc2/dense/add_grad/BroadcastGradientArgs:1"
  device: "/device:GPU:0"
  attr {
    key: "T"
    value {
      type: DT_FLOAT
    }
  }
  attr {
    key: "Tidx"
    value {
      type: DT_INT32
    }
  }
  attr {
    key: "_class"
    value {
      list {
        s: "loc:@lenet/fc2/dense/add"
      }
    }
  }
  attr {
    key: "_output_shapes"
    value {
      list {
        shape {
          dim {
            size: 10
          }
        }
      }
    }
  }
  attr {
    key: "keep_dims"
    value {
      b: false
    }
  }
}
node {
  name: "lenet/training/gradients/lenet/fc2/dense/add_grad/Reshape_1"
  op: "Reshape"
  input: "lenet/training/gradients/lenet/fc2/dense/add_grad/Sum_1"
  input: "lenet/training/gradients/lenet/fc2/dense/add_grad/Shape_1"
  device: "/device:GPU:0"
  attr {
    key: "T"
    value {
      type: DT_FLOAT
    }
  }
  attr {
    key: "Tshape"
    value {
      type: DT_INT32
    }
  }
  attr {
    key: "_class"
    value {
      list {
        s: "loc:@lenet/fc2/dense/add"
      }
    }
  }
  attr {
    key: "_output_shapes"
    value {
      list {
        shape {
          dim {
            size: 10
          }
        }
      }
    }
  }
}
node {
  name: "lenet/training/gradients/lenet/fc2/dense/add_grad/tuple/group_deps"
  op: "NoOp"
  input: "^lenet/training/gradients/lenet/fc2/dense/add_grad/Reshape"
  input: "^lenet/training/gradients/lenet/fc2/dense/add_grad/Reshape_1"
  device: "/device:GPU:0"
}
node {
  name: "lenet/training/gradients/lenet/fc2/dense/add_grad/tuple/control_dependency"
  op: "Identity"
  input: "lenet/training/gradients/lenet/fc2/dense/add_grad/Reshape"
  input: "^lenet/training/gradients/lenet/fc2/dense/add_grad/tuple/group_deps"
  device: "/device:GPU:0"
  attr {
    key: "T"
    value {
      type: DT_FLOAT
    }
  }
  attr {
    key: "_class"
    value {
      list {
        s: "loc:@lenet/fc2/dense/add"
      }
    }
  }
  attr {
    key: "_output_shapes"
    value {
      list {
        shape {
          dim {
            size: 128
          }
          dim {
            size: 10
          }
        }
      }
    }
  }
}
node {
  name: "lenet/training/gradients/lenet/fc2/dense/add_grad/tuple/control_dependency_1"
  op: "Identity"
  input: "lenet/training/gradients/lenet/fc2/dense/add_grad/Reshape_1"
  input: "^lenet/training/gradients/lenet/fc2/dense/add_grad/tuple/group_deps"
  device: "/device:GPU:0"
  attr {
    key: "T"
    value {
      type: DT_FLOAT
    }
  }
  attr {
    key: "_class"
    value {
      list {
        s: "loc:@lenet/fc2/dense/add"
      }
    }
  }
  attr {
    key: "_output_shapes"
    value {
      list {
        shape {
          dim {
            size: 10
          }
        }
      }
    }
  }
}
node {
  name: "lenet/training/gradients/lenet/fc2/dense/MatMul_grad/MatMul"
  op: "MatMul"
  input: "lenet/training/gradients/lenet/fc2/dense/add_grad/tuple/control_dependency"
  input: "lenet/fc2/dense/post_dropout"
  device: "/device:GPU:0"
  attr {
    key: "T"
    value {
      type: DT_FLOAT
    }
  }
  attr {
    key: "_class"
    value {
      list {
        s: "loc:@lenet/fc2/dense/MatMul"
      }
    }
  }
  attr {
    key: "_output_shapes"
    value {
      list {
        shape {
          dim {
            size: 128
          }
          dim {
            size: 500
          }
        }
      }
    }
  }
  attr {
    key: "transpose_a"
    value {
      b: false
    }
  }
  attr {
    key: "transpose_b"
    value {
      b: true
    }
  }
}
node {
  name: "lenet/training/gradients/lenet/fc2/dense/MatMul_grad/MatMul_1"
  op: "MatMul"
  input: "lenet/fc1/Relu"
  input: "lenet/training/gradients/lenet/fc2/dense/add_grad/tuple/control_dependency"
  device: "/device:GPU:0"
  attr {
    key: "T"
    value {
      type: DT_FLOAT
    }
  }
  attr {
    key: "_class"
    value {
      list {
        s: "loc:@lenet/fc2/dense/MatMul"
      }
    }
  }
  attr {
    key: "_output_shapes"
    value {
      list {
        shape {
          dim {
            size: 500
          }
          dim {
            size: 10
          }
        }
      }
    }
  }
  attr {
    key: "transpose_a"
    value {
      b: true
    }
  }
  attr {
    key: "transpose_b"
    value {
      b: false
    }
  }
}
node {
  name: "lenet/training/gradients/lenet/fc2/dense/MatMul_grad/tuple/group_deps"
  op: "NoOp"
  input: "^lenet/training/gradients/lenet/fc2/dense/MatMul_grad/MatMul"
  input: "^lenet/training/gradients/lenet/fc2/dense/MatMul_grad/MatMul_1"
  device: "/device:GPU:0"
}
node {
  name: "lenet/training/gradients/lenet/fc2/dense/MatMul_grad/tuple/control_dependency"
  op: "Identity"
  input: "lenet/training/gradients/lenet/fc2/dense/MatMul_grad/MatMul"
  input: "^lenet/training/gradients/lenet/fc2/dense/MatMul_grad/tuple/group_deps"
  device: "/device:GPU:0"
  attr {
    key: "T"
    value {
      type: DT_FLOAT
    }
  }
  attr {
    key: "_class"
    value {
      list {
        s: "loc:@lenet/fc2/dense/MatMul"
      }
    }
  }
  attr {
    key: "_output_shapes"
    value {
      list {
        shape {
          dim {
            size: 128
          }
          dim {
            size: 500
          }
        }
      }
    }
  }
}
node {
  name: "lenet/training/gradients/lenet/fc2/dense/MatMul_grad/tuple/control_dependency_1"
  op: "Identity"
  input: "lenet/training/gradients/lenet/fc2/dense/MatMul_grad/MatMul_1"
  input: "^lenet/training/gradients/lenet/fc2/dense/MatMul_grad/tuple/group_deps"
  device: "/device:GPU:0"
  attr {
    key: "T"
    value {
      type: DT_FLOAT
    }
  }
  attr {
    key: "_class"
    value {
      list {
        s: "loc:@lenet/fc2/dense/MatMul"
      }
    }
  }
  attr {
    key: "_output_shapes"
    value {
      list {
        shape {
          dim {
            size: 500
          }
          dim {
            size: 10
          }
        }
      }
    }
  }
}
node {
  name: "lenet/training/gradients/lenet/fc1/Relu_grad/ReluGrad"
  op: "ReluGrad"
  input: "lenet/training/gradients/lenet/fc2/dense/MatMul_grad/tuple/control_dependency"
  input: "lenet/fc1/Relu"
  device: "/device:GPU:0"
  attr {
    key: "T"
    value {
      type: DT_FLOAT
    }
  }
  attr {
    key: "_class"
    value {
      list {
        s: "loc:@lenet/fc1/Relu"
      }
    }
  }
  attr {
    key: "_output_shapes"
    value {
      list {
        shape {
          dim {
            size: 128
          }
          dim {
            size: 500
          }
        }
      }
    }
  }
}
node {
  name: "lenet/training/gradients/lenet/fc1/dense/add_grad/Shape"
  op: "Const"
  device: "/device:GPU:0"
  attr {
    key: "_class"
    value {
      list {
        s: "loc:@lenet/fc1/dense/add"
      }
    }
  }
  attr {
    key: "_output_shapes"
    value {
      list {
        shape {
          dim {
            size: 2
          }
        }
      }
    }
  }
  attr {
    key: "dtype"
    value {
      type: DT_INT32
    }
  }
  attr {
    key: "value"
    value {
      tensor {
        dtype: DT_INT32
        tensor_shape {
          dim {
            size: 2
          }
        }
        tensor_content: "\200\000\000\000\364\001\000\000"
      }
    }
  }
}
node {
  name: "lenet/training/gradients/lenet/fc1/dense/add_grad/Shape_1"
  op: "Const"
  device: "/device:GPU:0"
  attr {
    key: "_class"
    value {
      list {
        s: "loc:@lenet/fc1/dense/add"
      }
    }
  }
  attr {
    key: "_output_shapes"
    value {
      list {
        shape {
          dim {
            size: 1
          }
        }
      }
    }
  }
  attr {
    key: "dtype"
    value {
      type: DT_INT32
    }
  }
  attr {
    key: "value"
    value {
      tensor {
        dtype: DT_INT32
        tensor_shape {
          dim {
            size: 1
          }
        }
        int_val: 500
      }
    }
  }
}
node {
  name: "lenet/training/gradients/lenet/fc1/dense/add_grad/BroadcastGradientArgs"
  op: "BroadcastGradientArgs"
  input: "lenet/training/gradients/lenet/fc1/dense/add_grad/Shape"
  input: "lenet/training/gradients/lenet/fc1/dense/add_grad/Shape_1"
  device: "/device:GPU:0"
  attr {
    key: "T"
    value {
      type: DT_INT32
    }
  }
  attr {
    key: "_class"
    value {
      list {
        s: "loc:@lenet/fc1/dense/add"
      }
    }
  }
  attr {
    key: "_output_shapes"
    value {
      list {
        shape {
          dim {
            size: -1
          }
        }
        shape {
          dim {
            size: -1
          }
        }
      }
    }
  }
}
node {
  name: "lenet/training/gradients/lenet/fc1/dense/add_grad/Sum"
  op: "Sum"
  input: "lenet/training/gradients/lenet/fc1/Relu_grad/ReluGrad"
  input: "lenet/training/gradients/lenet/fc1/dense/add_grad/BroadcastGradientArgs"
  device: "/device:GPU:0"
  attr {
    key: "T"
    value {
      type: DT_FLOAT
    }
  }
  attr {
    key: "Tidx"
    value {
      type: DT_INT32
    }
  }
  attr {
    key: "_class"
    value {
      list {
        s: "loc:@lenet/fc1/dense/add"
      }
    }
  }
  attr {
    key: "_output_shapes"
    value {
      list {
        shape {
          dim {
            size: 128
          }
          dim {
            size: 500
          }
        }
      }
    }
  }
  attr {
    key: "keep_dims"
    value {
      b: false
    }
  }
}
node {
  name: "lenet/training/gradients/lenet/fc1/dense/add_grad/Reshape"
  op: "Reshape"
  input: "lenet/training/gradients/lenet/fc1/dense/add_grad/Sum"
  input: "lenet/training/gradients/lenet/fc1/dense/add_grad/Shape"
  device: "/device:GPU:0"
  attr {
    key: "T"
    value {
      type: DT_FLOAT
    }
  }
  attr {
    key: "Tshape"
    value {
      type: DT_INT32
    }
  }
  attr {
    key: "_class"
    value {
      list {
        s: "loc:@lenet/fc1/dense/add"
      }
    }
  }
  attr {
    key: "_output_shapes"
    value {
      list {
        shape {
          dim {
            size: 128
          }
          dim {
            size: 500
          }
        }
      }
    }
  }
}
node {
  name: "lenet/training/gradients/lenet/fc1/dense/add_grad/Sum_1"
  op: "Sum"
  input: "lenet/training/gradients/lenet/fc1/Relu_grad/ReluGrad"
  input: "lenet/training/gradients/lenet/fc1/dense/add_grad/BroadcastGradientArgs:1"
  device: "/device:GPU:0"
  attr {
    key: "T"
    value {
      type: DT_FLOAT
    }
  }
  attr {
    key: "Tidx"
    value {
      type: DT_INT32
    }
  }
  attr {
    key: "_class"
    value {
      list {
        s: "loc:@lenet/fc1/dense/add"
      }
    }
  }
  attr {
    key: "_output_shapes"
    value {
      list {
        shape {
          dim {
            size: 500
          }
        }
      }
    }
  }
  attr {
    key: "keep_dims"
    value {
      b: false
    }
  }
}
node {
  name: "lenet/training/gradients/lenet/fc1/dense/add_grad/Reshape_1"
  op: "Reshape"
  input: "lenet/training/gradients/lenet/fc1/dense/add_grad/Sum_1"
  input: "lenet/training/gradients/lenet/fc1/dense/add_grad/Shape_1"
  device: "/device:GPU:0"
  attr {
    key: "T"
    value {
      type: DT_FLOAT
    }
  }
  attr {
    key: "Tshape"
    value {
      type: DT_INT32
    }
  }
  attr {
    key: "_class"
    value {
      list {
        s: "loc:@lenet/fc1/dense/add"
      }
    }
  }
  attr {
    key: "_output_shapes"
    value {
      list {
        shape {
          dim {
            size: 500
          }
        }
      }
    }
  }
}
node {
  name: "lenet/training/gradients/lenet/fc1/dense/add_grad/tuple/group_deps"
  op: "NoOp"
  input: "^lenet/training/gradients/lenet/fc1/dense/add_grad/Reshape"
  input: "^lenet/training/gradients/lenet/fc1/dense/add_grad/Reshape_1"
  device: "/device:GPU:0"
}
node {
  name: "lenet/training/gradients/lenet/fc1/dense/add_grad/tuple/control_dependency"
  op: "Identity"
  input: "lenet/training/gradients/lenet/fc1/dense/add_grad/Reshape"
  input: "^lenet/training/gradients/lenet/fc1/dense/add_grad/tuple/group_deps"
  device: "/device:GPU:0"
  attr {
    key: "T"
    value {
      type: DT_FLOAT
    }
  }
  attr {
    key: "_class"
    value {
      list {
        s: "loc:@lenet/fc1/dense/add"
      }
    }
  }
  attr {
    key: "_output_shapes"
    value {
      list {
        shape {
          dim {
            size: 128
          }
          dim {
            size: 500
          }
        }
      }
    }
  }
}
node {
  name: "lenet/training/gradients/lenet/fc1/dense/add_grad/tuple/control_dependency_1"
  op: "Identity"
  input: "lenet/training/gradients/lenet/fc1/dense/add_grad/Reshape_1"
  input: "^lenet/training/gradients/lenet/fc1/dense/add_grad/tuple/group_deps"
  device: "/device:GPU:0"
  attr {
    key: "T"
    value {
      type: DT_FLOAT
    }
  }
  attr {
    key: "_class"
    value {
      list {
        s: "loc:@lenet/fc1/dense/add"
      }
    }
  }
  attr {
    key: "_output_shapes"
    value {
      list {
        shape {
          dim {
            size: 500
          }
        }
      }
    }
  }
}
node {
  name: "lenet/training/gradients/lenet/fc1/dense/MatMul_grad/MatMul"
  op: "MatMul"
  input: "lenet/training/gradients/lenet/fc1/dense/add_grad/tuple/control_dependency"
  input: "lenet/fc1/dense/post_dropout"
  device: "/device:GPU:0"
  attr {
    key: "T"
    value {
      type: DT_FLOAT
    }
  }
  attr {
    key: "_class"
    value {
      list {
        s: "loc:@lenet/fc1/dense/MatMul"
      }
    }
  }
  attr {
    key: "_output_shapes"
    value {
      list {
        shape {
          dim {
            size: 128
          }
          dim {
            size: 256
          }
        }
      }
    }
  }
  attr {
    key: "transpose_a"
    value {
      b: false
    }
  }
  attr {
    key: "transpose_b"
    value {
      b: true
    }
  }
}
node {
  name: "lenet/training/gradients/lenet/fc1/dense/MatMul_grad/MatMul_1"
  op: "MatMul"
  input: "lenet/Reshape_1"
  input: "lenet/training/gradients/lenet/fc1/dense/add_grad/tuple/control_dependency"
  device: "/device:GPU:0"
  attr {
    key: "T"
    value {
      type: DT_FLOAT
    }
  }
  attr {
    key: "_class"
    value {
      list {
        s: "loc:@lenet/fc1/dense/MatMul"
      }
    }
  }
  attr {
    key: "_output_shapes"
    value {
      list {
        shape {
          dim {
            size: 256
          }
          dim {
            size: 500
          }
        }
      }
    }
  }
  attr {
    key: "transpose_a"
    value {
      b: true
    }
  }
  attr {
    key: "transpose_b"
    value {
      b: false
    }
  }
}
node {
  name: "lenet/training/gradients/lenet/fc1/dense/MatMul_grad/tuple/group_deps"
  op: "NoOp"
  input: "^lenet/training/gradients/lenet/fc1/dense/MatMul_grad/MatMul"
  input: "^lenet/training/gradients/lenet/fc1/dense/MatMul_grad/MatMul_1"
  device: "/device:GPU:0"
}
node {
  name: "lenet/training/gradients/lenet/fc1/dense/MatMul_grad/tuple/control_dependency"
  op: "Identity"
  input: "lenet/training/gradients/lenet/fc1/dense/MatMul_grad/MatMul"
  input: "^lenet/training/gradients/lenet/fc1/dense/MatMul_grad/tuple/group_deps"
  device: "/device:GPU:0"
  attr {
    key: "T"
    value {
      type: DT_FLOAT
    }
  }
  attr {
    key: "_class"
    value {
      list {
        s: "loc:@lenet/fc1/dense/MatMul"
      }
    }
  }
  attr {
    key: "_output_shapes"
    value {
      list {
        shape {
          dim {
            size: 128
          }
          dim {
            size: 256
          }
        }
      }
    }
  }
}
node {
  name: "lenet/training/gradients/lenet/fc1/dense/MatMul_grad/tuple/control_dependency_1"
  op: "Identity"
  input: "lenet/training/gradients/lenet/fc1/dense/MatMul_grad/MatMul_1"
  input: "^lenet/training/gradients/lenet/fc1/dense/MatMul_grad/tuple/group_deps"
  device: "/device:GPU:0"
  attr {
    key: "T"
    value {
      type: DT_FLOAT
    }
  }
  attr {
    key: "_class"
    value {
      list {
        s: "loc:@lenet/fc1/dense/MatMul"
      }
    }
  }
  attr {
    key: "_output_shapes"
    value {
      list {
        shape {
          dim {
            size: 256
          }
          dim {
            size: 500
          }
        }
      }
    }
  }
}
node {
  name: "lenet/training/gradients/lenet/Reshape_1_grad/Shape"
  op: "Const"
  device: "/device:GPU:0"
  attr {
    key: "_class"
    value {
      list {
        s: "loc:@lenet/Reshape_1"
      }
    }
  }
  attr {
    key: "_output_shapes"
    value {
      list {
        shape {
          dim {
            size: 4
          }
        }
      }
    }
  }
  attr {
    key: "dtype"
    value {
      type: DT_INT32
    }
  }
  attr {
    key: "value"
    value {
      tensor {
        dtype: DT_INT32
        tensor_shape {
          dim {
            size: 4
          }
        }
        tensor_content: "\200\000\000\000\004\000\000\000\004\000\000\000\020\000\000\000"
      }
    }
  }
}
node {
  name: "lenet/training/gradients/lenet/Reshape_1_grad/Reshape"
  op: "Reshape"
  input: "lenet/training/gradients/lenet/fc1/dense/MatMul_grad/tuple/control_dependency"
  input: "lenet/training/gradients/lenet/Reshape_1_grad/Shape"
  device: "/device:GPU:0"
  attr {
    key: "T"
    value {
      type: DT_FLOAT
    }
  }
  attr {
    key: "Tshape"
    value {
      type: DT_INT32
    }
  }
  attr {
    key: "_class"
    value {
      list {
        s: "loc:@lenet/Reshape_1"
      }
    }
  }
  attr {
    key: "_output_shapes"
    value {
      list {
        shape {
          dim {
            size: 128
          }
          dim {
            size: 4
          }
          dim {
            size: 4
          }
          dim {
            size: 16
          }
        }
      }
    }
  }
}
node {
  name: "lenet/training/gradients/lenet/MaxPool_1_grad/MaxPoolGrad"
  op: "MaxPoolGrad"
  input: "lenet/Relu_1"
  input: "lenet/MaxPool_1"
  input: "lenet/training/gradients/lenet/Reshape_1_grad/Reshape"
  device: "/device:GPU:0"
  attr {
    key: "T"
    value {
      type: DT_FLOAT
    }
  }
  attr {
    key: "_class"
    value {
      list {
        s: "loc:@lenet/MaxPool_1"
      }
    }
  }
  attr {
    key: "_output_shapes"
    value {
      list {
        shape {
          dim {
            size: 128
          }
          dim {
            size: 8
          }
          dim {
            size: 8
          }
          dim {
            size: 16
          }
        }
      }
    }
  }
  attr {
    key: "data_format"
    value {
      s: "NHWC"
    }
  }
  attr {
    key: "ksize"
    value {
      list {
        i: 1
        i: 2
        i: 2
        i: 1
      }
    }
  }
  attr {
    key: "padding"
    value {
      s: "SAME"
    }
  }
  attr {
    key: "strides"
    value {
      list {
        i: 1
        i: 2
        i: 2
        i: 1
      }
    }
  }
}
node {
  name: "lenet/training/gradients/lenet/Relu_1_grad/ReluGrad"
  op: "ReluGrad"
  input: "lenet/training/gradients/lenet/MaxPool_1_grad/MaxPoolGrad"
  input: "lenet/Relu_1"
  device: "/device:GPU:0"
  attr {
    key: "T"
    value {
      type: DT_FLOAT
    }
  }
  attr {
    key: "_class"
    value {
      list {
        s: "loc:@lenet/Relu_1"
      }
    }
  }
  attr {
    key: "_output_shapes"
    value {
      list {
        shape {
          dim {
            size: 128
          }
          dim {
            size: 8
          }
          dim {
            size: 8
          }
          dim {
            size: 16
          }
        }
      }
    }
  }
}
node {
  name: "lenet/training/gradients/lenet/add_1_grad/Shape"
  op: "Const"
  device: "/device:GPU:0"
  attr {
    key: "_class"
    value {
      list {
        s: "loc:@lenet/add_1"
      }
    }
  }
  attr {
    key: "_output_shapes"
    value {
      list {
        shape {
          dim {
            size: 4
          }
        }
      }
    }
  }
  attr {
    key: "dtype"
    value {
      type: DT_INT32
    }
  }
  attr {
    key: "value"
    value {
      tensor {
        dtype: DT_INT32
        tensor_shape {
          dim {
            size: 4
          }
        }
        tensor_content: "\200\000\000\000\010\000\000\000\010\000\000\000\020\000\000\000"
      }
    }
  }
}
node {
  name: "lenet/training/gradients/lenet/add_1_grad/Shape_1"
  op: "Const"
  device: "/device:GPU:0"
  attr {
    key: "_class"
    value {
      list {
        s: "loc:@lenet/add_1"
      }
    }
  }
  attr {
    key: "_output_shapes"
    value {
      list {
        shape {
          dim {
            size: 1
          }
        }
      }
    }
  }
  attr {
    key: "dtype"
    value {
      type: DT_INT32
    }
  }
  attr {
    key: "value"
    value {
      tensor {
        dtype: DT_INT32
        tensor_shape {
          dim {
            size: 1
          }
        }
        int_val: 16
      }
    }
  }
}
node {
  name: "lenet/training/gradients/lenet/add_1_grad/BroadcastGradientArgs"
  op: "BroadcastGradientArgs"
  input: "lenet/training/gradients/lenet/add_1_grad/Shape"
  input: "lenet/training/gradients/lenet/add_1_grad/Shape_1"
  device: "/device:GPU:0"
  attr {
    key: "T"
    value {
      type: DT_INT32
    }
  }
  attr {
    key: "_class"
    value {
      list {
        s: "loc:@lenet/add_1"
      }
    }
  }
  attr {
    key: "_output_shapes"
    value {
      list {
        shape {
          dim {
            size: -1
          }
        }
        shape {
          dim {
            size: -1
          }
        }
      }
    }
  }
}
node {
  name: "lenet/training/gradients/lenet/add_1_grad/Sum"
  op: "Sum"
  input: "lenet/training/gradients/lenet/Relu_1_grad/ReluGrad"
…
      }
      attr {
        key: "_output_shapes"
        value {
          list {
            shape {
              dim {
                size: 1
              }
              dim {
                size: -1
              }
              dim {
                size: -1
              }
              dim {
                size: 3
              }
            }
          }
        }
      }
    }
    node_def {
      name: "resize_image_with_crop_or_pad/pad_to_bounding_box/stack/0"
      op: "Const"
      attr {
        key: "_output_shapes"
        value {
          list {
            shape {
            }
          }
        }
      }
      attr {
        key: "dtype"
        value {
          type: DT_INT32
        }
      }
      attr {
        key: "value"
        value {
          tensor {
            dtype: DT_INT32
            tensor_shape {
            }
            int_val: 0
          }
        }
      }
    }
    node_def {
      name: "resize_image_with_crop_or_pad/pad_to_bounding_box/stack/1"
      op: "Const"
      attr {
        key: "_output_shapes"
        value {
          list {
            shape {
            }
          }
        }
      }
      attr {
        key: "dtype"
        value {
          type: DT_INT32
        }
      }
      attr {
        key: "value"
        value {
          tensor {
            dtype: DT_INT32
            tensor_shape {
            }
            int_val: 0
          }
        }
      }
    }
    node_def {
      name: "resize_image_with_crop_or_pad/pad_to_bounding_box/stack/6"
      op: "Const"
      attr {
        key: "_output_shapes"
        value {
          list {
            shape {
            }
          }
        }
      }
      attr {
        key: "dtype"
        value {
          type: DT_INT32
        }
      }
      attr {
        key: "value"
        value {
          tensor {
            dtype: DT_INT32
            tensor_shape {
            }
            int_val: 0
          }
        }
      }
    }
    node_def {
      name: "resize_image_with_crop_or_pad/pad_to_bounding_box/stack/7"
      op: "Const"
      attr {
        key: "_output_shapes"
        value {
          list {
            shape {
            }
          }
        }
      }
      attr {
        key: "dtype"
        value {
          type: DT_INT32
        }
      }
      attr {
        key: "value"
        value {
          tensor {
            dtype: DT_INT32
            tensor_shape {
            }
            int_val: 0
          }
        }
      }
    }
    node_def {
      name: "resize_image_with_crop_or_pad/pad_to_bounding_box/stack"
      op: "Pack"
      input: "resize_image_with_crop_or_pad/pad_to_bounding_box/stack/0:output:0"
      input: "resize_image_with_crop_or_pad/pad_to_bounding_box/stack/1:output:0"
      input: "resize_image_with_crop_or_pad/Maximum_3:z:0"
      input: "resize_image_with_crop_or_pad/pad_to_bounding_box/sub_3:z:0"
      input: "resize_image_with_crop_or_pad/Maximum_1:z:0"
      input: "resize_image_with_crop_or_pad/pad_to_bounding_box/sub_1:z:0"
      input: "resize_image_with_crop_or_pad/pad_to_bounding_box/stack/6:output:0"
      input: "resize_image_with_crop_or_pad/pad_to_bounding_box/stack/7:output:0"
      attr {
        key: "N"
        value {
          i: 8
        }
      }
      attr {
        key: "T"
        value {
          type: DT_INT32
        }
      }
      attr {
        key: "_output_shapes"
        value {
          list {
            shape {
              dim {
                size: 8
              }
            }
          }
        }
      }
      attr {
        key: "axis"
        value {
          i: 0
        }
      }
    }
    node_def {
      name: "resize_image_with_crop_or_pad/pad_to_bounding_box/Reshape/shape"
      op: "Const"
      attr {
        key: "_output_shapes"
        value {
          list {
            shape {
              dim {
                size: 2
              }
            }
          }
        }
      }
      attr {
        key: "dtype"
        value {
          type: DT_INT32
        }
      }
      attr {
        key: "value"
        value {
          tensor {
            dtype: DT_INT32
            tensor_shape {
              dim {
                size: 2
              }
            }
            tensor_content: "\004\000\000\000\002\000\000\000"
          }
        }
      }
    }
    node_def {
      name: "resize_image_with_crop_or_pad/pad_to_bounding_box/Reshape"
      op: "Reshape"
      input: "resize_image_with_crop_or_pad/pad_to_bounding_box/stack:output:0"
      input: "resize_image_with_crop_or_pad/pad_to_bounding_box/Reshape/shape:output:0"
      attr {
        key: "T"
        value {
          type: DT_INT32
        }
      }
      attr {
        key: "Tshape"
        value {
          type: DT_INT32
        }
      }
      attr {
        key: "_output_shapes"
        value {
          list {
            shape {
              dim {
                size: 4
              }
              dim {
                size: 2
              }
            }
          }
        }
      }
    }
    node_def {
      name: "resize_image_with_crop_or_pad/pad_to_bounding_box/Pad"
      op: "Pad"
      input: "resize_image_with_crop_or_pad/pad_to_bounding_box/control_dependency:output:0"
      input: "resize_image_with_crop_or_pad/pad_to_bounding_box/Reshape:output:0"
      attr {
        key: "T"
        value {
          type: DT_FLOAT
        }
      }
      attr {
        key: "Tpaddings"
        value {
          type: DT_INT32
        }
      }
      attr {
        key: "_output_shapes"
        value {
          list {
            shape {
              dim {
                size: 1
              }
              dim {
                size: 36
              }
              dim {
                size: 36
              }
              dim {
                size: 3
              }
            }
          }
        }
      }
    }
    node_def {
      name: "resize_image_with_crop_or_pad/control_dependency_1"
      op: "Identity"
      input: "resize_image_with_crop_or_pad/pad_to_bounding_box/Pad:output:0"
      attr {
        key: "T"
        value {
          type: DT_FLOAT
        }
      }
      attr {
        key: "_class"
        value {
          list {
            s: "loc:@resize_image_with_crop_or_pad/pad_to_bounding_box/Pad"
          }
        }
      }
      attr {
        key: "_output_shapes"
        value {
          list {
            shape {
              dim {
                size: 1
              }
              dim {
                size: 36
              }
              dim {
                size: 36
              }
              dim {
                size: 3
              }
            }
          }
        }
      }
    }
    node_def {
      name: "resize_image_with_crop_or_pad/Squeeze"
      op: "Squeeze"
      input: "resize_image_with_crop_or_pad/control_dependency_1:output:0"
      attr {
        key: "T"
        value {
          type: DT_FLOAT
        }
      }
      attr {
        key: "_output_shapes"
        value {
          list {
            shape {
              dim {
                size: 36
              }
              dim {
                size: 36
              }
              dim {
                size: 3
              }
            }
          }
        }
      }
      attr {
        key: "squeeze_dims"
        value {
          list {
            i: 0
          }
        }
      }
    }
    node_def {
      name: "random_crop/size"
      op: "Const"
      attr {
        key: "_output_shapes"
        value {
          list {
            shape {
              dim {
                size: 3
              }
            }
          }
        }
      }
      attr {
        key: "dtype"
        value {
          type: DT_INT32
        }
      }
      attr {
        key: "value"
        value {
          tensor {
            dtype: DT_INT32
            tensor_shape {
              dim {
                size: 3
              }
            }
            tensor_content: "\034\000\000\000\034\000\000\000\003\000\000\000"
          }
        }
      }
    }
    node_def {
      name: "random_crop/Shape"
      op: "Const"
      attr {
        key: "_output_shapes"
        value {
          list {
            shape {
              dim {
                size: 3
              }
            }
          }
        }
      }
      attr {
        key: "dtype"
        value {
          type: DT_INT32
        }
      }
      attr {
        key: "value"
        value {
          tensor {
            dtype: DT_INT32
            tensor_shape {
              dim {
                size: 3
              }
            }
            tensor_content: "$\000\000\000$\000\000\000\003\000\000\000"
          }
        }
      }
    }
    node_def {
      name: "random_crop/GreaterEqual"
      op: "GreaterEqual"
      input: "random_crop/Shape:output:0"
      input: "random_crop/size:output:0"
      attr {
        key: "T"
        value {
          type: DT_INT32
        }
      }
      attr {
        key: "_output_shapes"
        value {
          list {
            shape {
              dim {
                size: 3
              }
            }
          }
        }
      }
    }
    node_def {
      name: "random_crop/Const"
      op: "Const"
      attr {
        key: "_output_shapes"
        value {
          list {
            shape {
              dim {
                size: 1
              }
            }
          }
        }
      }
      attr {
        key: "dtype"
        value {
          type: DT_INT32
        }
      }
      attr {
        key: "value"
        value {
          tensor {
            dtype: DT_INT32
            tensor_shape {
              dim {
                size: 1
              }
            }
            int_val: 0
          }
        }
      }
    }
    node_def {
      name: "random_crop/All"
      op: "All"
      input: "random_crop/GreaterEqual:z:0"
      input: "random_crop/Const:output:0"
      attr {
        key: "Tidx"
        value {
          type: DT_INT32
        }
      }
      attr {
        key: "_output_shapes"
        value {
          list {
            shape {
            }
          }
        }
      }
      attr {
        key: "keep_dims"
        value {
          b: false
        }
      }
    }
    node_def {
      name: "random_crop/Assert/Const"
      op: "Const"
      attr {
        key: "_output_shapes"
        value {
          list {
            shape {
            }
          }
        }
      }
      attr {
        key: "dtype"
        value {
          type: DT_STRING
        }
      }
      attr {
        key: "value"
        value {
          tensor {
            dtype: DT_STRING
            tensor_shape {
            }
            string_val: "Need value.shape >= size, got "
          }
        }
      }
    }
    node_def {
      name: "random_crop/Assert/Assert/data_0"
      op: "Const"
      attr {
        key: "_output_shapes"
        value {
          list {
            shape {
            }
          }
        }
      }
      attr {
        key: "dtype"
        value {
          type: DT_STRING
        }
      }
      attr {
        key: "value"
        value {
          tensor {
            dtype: DT_STRING
            tensor_shape {
            }
            string_val: "Need value.shape >= size, got "
          }
        }
      }
    }
    node_def {
      name: "random_crop/Assert/Assert"
      op: "Assert"
      input: "random_crop/All:output:0"
      input: "random_crop/Assert/Assert/data_0:output:0"
      input: "random_crop/Shape:output:0"
      input: "random_crop/size:output:0"
      input: "^resize_image_with_crop_or_pad/pad_to_bounding_box/Assert_3/Assert"
      attr {
        key: "T"
        value {
          list {
            type: DT_STRING
            type: DT_INT32
            type: DT_INT32
          }
        }
      }
      attr {
        key: "_output_shapes"
        value {
          list {
          }
        }
      }
      attr {
        key: "summarize"
        value {
          i: 1000
        }
      }
    }
    node_def {
      name: "random_crop/control_dependency"
      op: "Identity"
      input: "random_crop/Shape:output:0"
      input: "^random_crop/Assert/Assert"
      attr {
        key: "T"
        value {
          type: DT_INT32
        }
      }
      attr {
        key: "_class"
        value {
          list {
            s: "loc:@random_crop/Shape"
          }
        }
      }
      attr {
        key: "_output_shapes"
        value {
          list {
            shape {
              dim {
                size: 3
              }
            }
          }
        }
      }
    }
    node_def {
      name: "random_crop/sub"
      op: "Sub"
      input: "random_crop/control_dependency:output:0"
      input: "random_crop/size:output:0"
      attr {
        key: "T"
        value {
          type: DT_INT32
        }
      }
      attr {
        key: "_output_shapes"
        value {
          list {
            shape {
              dim {
                size: 3
              }
            }
          }
        }
      }
    }
    node_def {
      name: "random_crop/add/y"
      op: "Const"
      attr {
        key: "_output_shapes"
        value {
          list {
            shape {
            }
          }
        }
      }
      attr {
        key: "dtype"
        value {
          type: DT_INT32
        }
      }
      attr {
        key: "value"
        value {
          tensor {
            dtype: DT_INT32
            tensor_shape {
            }
            int_val: 1
          }
        }
      }
    }
    node_def {
      name: "random_crop/add"
      op: "Add"
      input: "random_crop/sub:z:0"
      input: "random_crop/add/y:output:0"
      attr {
        key: "T"
        value {
          type: DT_INT32
        }
      }
      attr {
        key: "_output_shapes"
        value {
          list {
            shape {
              dim {
                size: 3
              }
            }
          }
        }
      }
    }
    node_def {
      name: "random_crop/Shape_1"
      op: "Const"
      attr {
        key: "_output_shapes"
        value {
          list {
            shape {
              dim {
                size: 1
              }
            }
          }
        }
      }
      attr {
        key: "dtype"
        value {
          type: DT_INT32
        }
      }
      attr {
        key: "value"
        value {
          tensor {
            dtype: DT_INT32
            tensor_shape {
              dim {
                size: 1
              }
            }
            int_val: 3
          }
        }
      }
    }
    node_def {
      name: "random_crop/random_uniform/min"
      op: "Const"
      attr {
        key: "_output_shapes"
        value {
          list {
            shape {
            }
          }
        }
      }
      attr {
        key: "dtype"
        value {
          type: DT_INT32
        }
      }
      attr {
        key: "value"
        value {
          tensor {
            dtype: DT_INT32
            tensor_shape {
            }
            int_val: 0
          }
        }
      }
    }
    node_def {
      name: "random_crop/random_uniform/max"
      op: "Const"
      attr {
        key: "_output_shapes"
        value {
          list {
            shape {
            }
          }
        }
      }
      attr {
        key: "dtype"
        value {
          type: DT_INT32
        }
      }
      attr {
        key: "value"
        value {
          tensor {
            dtype: DT_INT32
            tensor_shape {
            }
            int_val: 2147483647
          }
        }
      }
    }
    node_def {
      name: "random_crop/random_uniform"
      op: "RandomUniformInt"
      input: "random_crop/Shape_1:output:0"
      input: "random_crop/random_uniform/min:output:0"
      input: "random_crop/random_uniform/max:output:0"
      attr {
        key: "T"
        value {
          type: DT_INT32
        }
      }
      attr {
        key: "Tout"
        value {
          type: DT_INT32
        }
      }
      attr {
        key: "_output_shapes"
        value {
          list {
            shape {
              dim {
                size: 3
              }
            }
          }
        }
      }
      attr {
        key: "seed"
        value {
          i: 0
        }
      }
      attr {
        key: "seed2"
        value {
          i: 0
        }
      }
    }
    node_def {
      name: "random_crop/mod"
      op: "FloorMod"
      input: "random_crop/random_uniform:output:0"
      input: "random_crop/add:z:0"
      attr {
        key: "T"
        value {
          type: DT_INT32
        }
      }
      attr {
        key: "_output_shapes"
        value {
          list {
            shape {
              dim {
                size: 3
              }
            }
          }
        }
      }
    }
    node_def {
      name: "random_crop"
      op: "Slice"
      input: "resize_image_with_crop_or_pad/Squeeze:output:0"
      input: "random_crop/mod:z:0"
      input: "random_crop/size:output:0"
      attr {
        key: "Index"
        value {
          type: DT_INT32
        }
      }
      attr {
        key: "T"
        value {
          type: DT_FLOAT
        }
      }
      attr {
        key: "_output_shapes"
        value {
          list {
            shape {
              dim {
                size: 28
              }
              dim {
                size: 28
              }
              dim {
                size: 3
              }
            }
          }
        }
      }
    }
    node_def {
      name: "random_flip_left_right/control_dependency"
      op: "Identity"
      input: "random_crop:output:0"
      attr {
        key: "T"
        value {
          type: DT_FLOAT
        }
      }
      attr {
        key: "_class"
        value {
          list {
            s: "loc:@random_crop"
          }
        }
      }
      attr {
        key: "_output_shapes"
        value {
          list {
            shape {
              dim {
                size: 28
              }
              dim {
                size: 28
              }
              dim {
                size: 3
              }
            }
          }
        }
      }
    }
    node_def {
      name: "random_flip_left_right/random_uniform/shape"
      op: "Const"
      attr {
        key: "_output_shapes"
        value {
          list {
            shape {
              dim {
              }
            }
          }
        }
      }
      attr {
        key: "dtype"
        value {
          type: DT_INT32
        }
      }
      attr {
        key: "value"
        value {
          tensor {
            dtype: DT_INT32
            tensor_shape {
              dim {
              }
            }
          }
        }
      }
    }
    node_def {
      name: "random_flip_left_right/random_uniform/min"
      op: "Const"
      attr {
        key: "_output_shapes"
        value {
          list {
            shape {
            }
          }
        }
      }
      attr {
        key: "dtype"
        value {
          type: DT_FLOAT
        }
      }
      attr {
        key: "value"
        value {
          tensor {
            dtype: DT_FLOAT
            tensor_shape {
            }
            float_val: 0.0
          }
        }
      }
    }
    node_def {
      name: "random_flip_left_right/random_uniform/max"
      op: "Const"
      attr {
        key: "_output_shapes"
        value {
          list {
            shape {
            }
          }
        }
      }
      attr {
        key: "dtype"
        value {
          type: DT_FLOAT
        }
      }
      attr {
        key: "value"
        value {
          tensor {
            dtype: DT_FLOAT
            tensor_shape {
            }
            float_val: 1.0
          }
        }
      }
    }
    node_def {
      name: "random_flip_left_right/random_uniform/RandomUniform"
      op: "RandomUniform"
      input: "random_flip_left_right/random_uniform/shape:output:0"
      attr {
        key: "T"
        value {
          type: DT_INT32
        }
      }
      attr {
        key: "_output_shapes"
        value {
          list {
            shape {
            }
          }
        }
      }
      attr {
        key: "dtype"
        value {
          type: DT_FLOAT
        }
      }
      attr {
        key: "seed"
        value {
          i: 0
        }
      }
      attr {
        key: "seed2"
        value {
          i: 0
        }
      }
    }
    node_def {
      name: "random_flip_left_right/random_uniform/sub"
      op: "Sub"
      input: "random_flip_left_right/random_uniform/max:output:0"
      input: "random_flip_left_right/random_uniform/min:output:0"
      attr {
        key: "T"
        value {
          type: DT_FLOAT
        }
      }
      attr {
        key: "_output_shapes"
        value {
          list {
            shape {
            }
          }
        }
      }
    }
    node_def {
      name: "random_flip_left_right/random_uniform/mul"
      op: "Mul"
      input: "random_flip_left_right/random_uniform/RandomUniform:output:0"
      input: "random_flip_left_right/random_uniform/sub:z:0"
      attr {
        key: "T"
        value {
          type: DT_FLOAT
        }
      }
      attr {
        key: "_output_shapes"
        value {
          list {
            shape {
            }
          }
        }
      }
    }
    node_def {
      name: "random_flip_left_right/random_uniform"
      op: "Add"
      input: "random_flip_left_right/random_uniform/mul:z:0"
      input: "random_flip_left_right/random_uniform/min:output:0"
      attr {
        key: "T"
        value {
          type: DT_FLOAT
        }
      }
      attr {
        key: "_output_shapes"
        value {
          list {
            shape {
            }
          }
        }
      }
    }
    node_def {
      name: "random_flip_left_right/Less/y"
      op: "Const"
      attr {
        key: "_output_shapes"
        value {
          list {
            shape {
            }
          }
        }
      }
      attr {
        key: "dtype"
        value {
          type: DT_FLOAT
        }
      }
      attr {
        key: "value"
        value {
          tensor {
            dtype: DT_FLOAT
            tensor_shape {
            }
            float_val: 0.5
          }
        }
      }
    }
    node_def {
      name: "random_flip_left_right/Less"
      op: "Less"
      input: "random_flip_left_right/random_uniform:z:0"
      input: "random_flip_left_right/Less/y:output:0"
      attr {
        key: "T"
        value {
          type: DT_FLOAT
        }
      }
      attr {
        key: "_output_shapes"
        value {
          list {
            shape {
            }
          }
        }
      }
    }
    node_def {
      name: "random_flip_left_right"
      op: "If"
      input: "random_flip_left_right/Less:z:0"
      input: "random_flip_left_right/control_dependency:output:0"
      input: "^random_crop/Assert/Assert"
      attr {
        key: "Tcond"
        value {
          type: DT_BOOL
        }
      }
      attr {
        key: "Tin"
        value {
          list {
            type: DT_FLOAT
          }
        }
      }
      attr {
        key: "Tout"
        value {
          list {
            type: DT_FLOAT
          }
        }
      }
      attr {
        key: "_lower_using_switch_merge"
        value {
          b: true
        }
      }
      attr {
        key: "_output_shapes"
        value {
          list {
            shape {
              dim {
                size: 28
              }
              dim {
                size: 28
              }
              dim {
                size: 3
              }
            }
          }
        }
      }
      attr {
        key: "else_branch"
        value {
          func {
            name: "random_flip_left_right_false_52049"
          }
        }
      }
      attr {
        key: "output_shapes"
        value {
          list {
            shape {
              dim {
                size: 28
              }
              dim {
                size: 28
              }
              dim {
                size: 3
              }
            }
          }
        }
      }
      attr {
        key: "then_branch"
        value {
          func {
            name: "random_flip_left_right_true_52048"
          }
        }
      }
    }
    node_def {
      name: "random_flip_left_right/Identity"
      op: "Identity"
      input: "random_flip_left_right:output:0"
      attr {
        key: "T"
        value {
          type: DT_FLOAT
        }
      }
      attr {
        key: "_output_shapes"
        value {
          list {
            shape {
              dim {
                size: 28
              }
              dim {
                size: 28
              }
              dim {
                size: 3
              }
            }
          }
        }
      }
    }
    node_def {
      name: "per_image_standardization/control_dependency"
      op: "Identity"
      input: "random_flip_left_right/Identity:output:0"
      attr {
        key: "T"
        value {
          type: DT_FLOAT
        }
      }
      attr {
        key: "_class"
        value {
          list {
            s: "loc:@random_flip_left_right/Identity"
          }
        }
      }
      attr {
        key: "_output_shapes"
        value {
          list {
            shape {
              dim {
                size: 28
              }
              dim {
                size: 28
              }
              dim {
                size: 3
              }
            }
          }
        }
      }
    }
    node_def {
      name: "per_image_standardization/Shape"
      op: "Const"
      attr {
        key: "_output_shapes"
        value {
          list {
            shape {
              dim {
                size: 3
              }
            }
          }
        }
      }
      attr {
        key: "dtype"
        value {
          type: DT_INT32
        }
      }
      attr {
        key: "value"
        value {
          tensor {
            dtype: DT_INT32
            tensor_shape {
              dim {
                size: 3
              }
            }
            tensor_content: "\034\000\000\000\034\000\000\000\003\000\000\000"
          }
        }
      }
    }
    node_def {
      name: "per_image_standardization/strided_slice/stack"
      op: "Const"
      attr {
        key: "_output_shapes"
        value {
          list {
            shape {
              dim {
                size: 1
              }
            }
          }
        }
      }
      attr {
        key: "dtype"
        value {
          type: DT_INT32
        }
      }
      attr {
        key: "value"
        value {
          tensor {
            dtype: DT_INT32
            tensor_shape {
              dim {
                size: 1
              }
            }
            int_val: -3
          }
        }
      }
    }
    node_def {
      name: "per_image_standardization/strided_slice/stack_1"
      op: "Const"
      attr {
        key: "_output_shapes"
        value {
          list {
            shape {
              dim {
                size: 1
              }
            }
          }
        }
      }
      attr {
        key: "dtype"
        value {
          type: DT_INT32
        }
      }
      attr {
        key: "value"
        value {
          tensor {
            dtype: DT_INT32
            tensor_shape {
              dim {
                size: 1
              }
            }
            int_val: 0
          }
        }
      }
    }
    node_def {
      name: "per_image_standardization/strided_slice/stack_2"
      op: "Const"
      attr {
        key: "_output_shapes"
        value {
          list {
            shape {
              dim {
                size: 1
              }
            }
          }
        }
      }
      attr {
        key: "dtype"
        value {
          type: DT_INT32
        }
      }
      attr {
        key: "value"
        value {
          tensor {
            dtype: DT_INT32
            tensor_shape {
              dim {
                size: 1
              }
            }
            int_val: 1
          }
        }
      }
    }
    node_def {
      name: "per_image_standardization/strided_slice"
      op: "StridedSlice"
      input: "per_image_standardization/Shape:output:0"
      input: "per_image_standardization/strided_slice/stack:output:0"
      input: "per_image_standardization/strided_slice/stack_1:output:0"
      input: "per_image_standardization/strided_slice/stack_2:output:0"
      attr {
        key: "Index"
        value {
          type: DT_INT32
        }
      }
      attr {
        key: "T"
        value {
          type: DT_INT32
        }
      }
      attr {
        key: "_output_shapes"
        value {
          list {
            shape {
              dim {
                size: 3
              }
            }
          }
        }
      }
      attr {
        key: "begin_mask"
        value {
          i: 0
        }
      }
      attr {
        key: "ellipsis_mask"
        value {
          i: 0
        }
      }
      attr {
        key: "end_mask"
        value {
          i: 1
        }
      }
      attr {
        key: "new_axis_mask"
        value {
          i: 0
        }
      }
      attr {
        key: "shrink_axis_mask"
        value {
          i: 0
        }
      }
    }
    node_def {
      name: "per_image_standardization/Const"
      op: "Const"
      attr {
        key: "_output_shapes"
        value {
          list {
            shape {
              dim {
                size: 1
              }
            }
          }
        }
      }
      attr {
        key: "dtype"
        value {
          type: DT_INT32
        }
      }
      attr {
        key: "value"
        value {
          tensor {
            dtype: DT_INT32
            tensor_shape {
              dim {
                size: 1
              }
            }
            int_val: 0
          }
        }
      }
    }
    node_def {
      name: "per_image_standardization/Prod"
      op: "Prod"
      input: "per_image_standardization/strided_slice:output:0"
      input: "per_image_standardization/Const:output:0"
      attr {
        key: "T"
        value {
          type: DT_INT32
        }
      }
      attr {
        key: "Tidx"
        value {
          type: DT_INT32
        }
      }
      attr {
        key: "_output_shapes"
        value {
          list {
            shape {
            }
          }
        }
      }
      attr {
        key: "keep_dims"
        value {
          b: false
        }
      }
    }
    node_def {
      name: "per_image_standardization/Mean/reduction_indices"
      op: "Const"
      attr {
        key: "_output_shapes"
        value {
          list {
            shape {
              dim {
                size: 3
              }
            }
          }
        }
      }
      attr {
        key: "dtype"
        value {
          type: DT_INT32
        }
      }
      attr {
        key: "value"
        value {
          tensor {
            dtype: DT_INT32
            tensor_shape {
              dim {
                size: 3
              }
            }
            tensor_content: "\377\377\377\377\376\377\377\377\375\377\377\377"
          }
        }
      }
    }
    node_def {
      name: "per_image_standardization/Mean"
      op: "Mean"
      input: "per_image_standardization/control_dependency:output:0"
      input: "per_image_standardization/Mean/reduction_indices:output:0"
      attr {
        key: "T"
        value {
          type: DT_FLOAT
        }
      }
      attr {
        key: "Tidx"
        value {
          type: DT_INT32
        }
      }
      attr {
        key: "_output_shapes"
        value {
          list {
            shape {
              dim {
                size: 1
              }
              dim {
                size: 1
              }
              dim {
                size: 1
              }
            }
          }
        }
      }
      attr {
        key: "keep_dims"
        value {
          b: true
        }
      }
    }
    node_def {
      name: "per_image_standardization/Square"
      op: "Square"
      input: "per_image_standardization/control_dependency:output:0"
      attr {
        key: "T"
        value {
          type: DT_FLOAT
        }
      }
      attr {
        key: "_output_shapes"
        value {
          list {
            shape {
              dim {
                size: 28
              }
              dim {
                size: 28
              }
              dim {
                size: 3
              }
            }
          }
        }
      }
    }
    node_def {
      name: "per_image_standardization/Mean_1/reduction_indices"
      op: "Const"
      attr {
        key: "_output_shapes"
        value {
          list {
            shape {
              dim {
                size: 3
              }
            }
          }
        }
      }
      attr {
        key: "dtype"
        value {
          type: DT_INT32
        }
      }
      attr {
        key: "value"
        value {
          tensor {
            dtype: DT_INT32
            tensor_shape {
              dim {
                size: 3
              }
            }
            tensor_content: "\377\377\377\377\376\377\377\377\375\377\377\377"
          }
        }
      }
    }
    node_def {
      name: "per_image_standardization/Mean_1"
      op: "Mean"
      input: "per_image_standardization/Square:y:0"
      input: "per_image_standardization/Mean_1/reduction_indices:output:0"
      attr {
        key: "T"
        value {
          type: DT_FLOAT
        }
      }
      attr {
        key: "Tidx"
        value {
          type: DT_INT32
        }
      }
      attr {
        key: "_output_shapes"
        value {
          list {
            shape {
              dim {
                size: 1
              }
              dim {
                size: 1
              }
              dim {
                size: 1
              }
            }
          }
        }
      }
      attr {
        key: "keep_dims"
        value {
          b: true
        }
      }
    }
    node_def {
      name: "per_image_standardization/Square_1"
      op: "Square"
      input: "per_image_standardization/Mean:output:0"
      attr {
        key: "T"
        value {
          type: DT_FLOAT
        }
      }
      attr {
        key: "_output_shapes"
        value {
          list {
            shape {
              dim {
                size: 1
              }
              dim {
                size: 1
              }
              dim {
                size: 1
              }
            }
          }
        }
      }
    }
    node_def {
      name: "per_image_standardization/sub"
      op: "Sub"
      input: "per_image_standardization/Mean_1:output:0"
      input: "per_image_standardization/Square_1:y:0"
      attr {
        key: "T"
        value {
          type: DT_FLOAT
        }
      }
      attr {
        key: "_output_shapes"
        value {
          list {
            shape {
              dim {
                size: 1
              }
              dim {
                size: 1
              }
              dim {
                size: 1
              }
            }
          }
        }
      }
    }
    node_def {
      name: "per_image_standardization/Relu"
      op: "Relu"
      input: "per_image_standardization/sub:z:0"
      attr {
        key: "T"
        value {
          type: DT_FLOAT
        }
      }
      attr {
        key: "_output_shapes"
        value {
          list {
            shape {
              dim {
                size: 1
              }
              dim {
                size: 1
              }
              dim {
                size: 1
              }
            }
          }
        }
      }
    }
    node_def {
      name: "per_image_standardization/Sqrt"
      op: "Sqrt"
      input: "per_image_standardization/Relu:activations:0"
      attr {
        key: "T"
        value {
          type: DT_FLOAT
        }
      }
      attr {
        key: "_output_shapes"
        value {
          list {
            shape {
              dim {
                size: 1
              }
              dim {
                size: 1
              }
              dim {
                size: 1
              }
            }
          }
        }
      }
    }
    node_def {
      name: "per_image_standardization/Cast"
      op: "Cast"
      input: "per_image_standardization/Prod:output:0"
      attr {
        key: "DstT"
        value {
          type: DT_FLOAT
        }
      }
      attr {
        key: "SrcT"
        value {
          type: DT_INT32
        }
      }
      attr {
        key: "Truncate"
        value {
          b: false
        }
      }
      attr {
        key: "_output_shapes"
        value {
          list {
            shape {
            }
          }
        }
      }
    }
    node_def {
      name: "per_image_standardization/Rsqrt"
      op: "Rsqrt"
      input: "per_image_standardization/Cast:y:0"
      attr {
        key: "T"
        value {
          type: DT_FLOAT
        }
      }
      attr {
        key: "_output_shapes"
        value {
          list {
            shape {
            }
          }
        }
      }
    }
    node_def {
      name: "per_image_standardization/Maximum"
      op: "Maximum"
      input: "per_image_standardization/Sqrt:y:0"
      input: "per_image_standardization/Rsqrt:y:0"
      attr {
        key: "T"
        value {
          type: DT_FLOAT
        }
      }
      attr {
        key: "_output_shapes"
        value {
          list {
            shape {
              dim {
                size: 1
              }
              dim {
                size: 1
              }
              dim {
                size: 1
              }
            }
          }
        }
      }
    }
    node_def {
      name: "per_image_standardization/Sub_1"
      op: "Sub"
      input: "per_image_standardization/control_dependency:output:0"
      input: "per_image_standardization/Mean:output:0"
      attr {
        key: "T"
        value {
          type: DT_FLOAT
        }
      }
      attr {
        key: "_output_shapes"
        value {
          list {
            shape {
              dim {
                size: 28
              }
              dim {
                size: 28
              }
              dim {
                size: 3
              }
            }
          }
        }
      }
    }
    node_def {
      name: "per_image_standardization"
      op: "RealDiv"
      input: "per_image_standardization/Sub_1:z:0"
      input: "per_image_standardization/Maximum:z:0"
      attr {
        key: "T"
        value {
          type: DT_FLOAT
        }
      }
      attr {
        key: "_output_shapes"
        value {
          list {
            shape {
              dim {
                size: 28
              }
              dim {
                size: 28
              }
              dim {
                size: 3
              }
            }
          }
        }
      }
    }
    node_def {
      name: "Identity"
      op: "Identity"
      input: "per_image_standardization:z:0"
      input: "^resize_image_with_crop_or_pad/pad_to_bounding_box/Assert_1/Assert"
      input: "^resize_image_with_crop_or_pad/crop_to_bounding_box/Assert/Assert"
      input: "^resize_image_with_crop_or_pad/crop_to_bounding_box/assert_positive/assert_less/Assert/Assert"
      input: "^resize_image_with_crop_or_pad/assert_greater_equal/Assert/Assert"
      input: "^resize_image_with_crop_or_pad/crop_to_bounding_box/assert_greater_equal/Assert/Assert"
      input: "^random_crop/Assert/Assert"
      input: "^resize_image_with_crop_or_pad/assert_positive/assert_less/Assert/Assert"
      input: "^resize_image_with_crop_or_pad/pad_to_bounding_box/Assert_2/Assert"
      input: "^random_flip_left_right"
      input: "^resize_image_with_crop_or_pad/crop_to_bounding_box/Assert_5/Assert"
      input: "^resize_image_with_crop_or_pad/crop_to_bounding_box/Assert_1/Assert"
      input: "^resize_image_with_crop_or_pad/pad_to_bounding_box/Assert/Assert"
      input: "^resize_image_with_crop_or_pad/pad_to_bounding_box/Assert_3/Assert"
      input: "^resize_image_with_crop_or_pad/pad_to_bounding_box/assert_greater_equal/Assert/Assert"
      input: "^resize_image_with_crop_or_pad/pad_to_bounding_box/assert_positive/assert_less/Assert/Assert"
      input: "^resize_image_with_crop_or_pad/crop_to_bounding_box/Assert_3/Assert"
      input: "^resize_image_with_crop_or_pad/crop_to_bounding_box/Assert_2/Assert"
      input: "^resize_image_with_crop_or_pad/crop_to_bounding_box/Assert_4/Assert"
      attr {
        key: "T"
        value {
          type: DT_FLOAT
        }
      }
      attr {
        key: "_output_shapes"
        value {
          list {
            shape {
              dim {
                size: 28
              }
              dim {
                size: 28
              }
              dim {
                size: 3
              }
            }
          }
        }
      }
    }
    node_def {
      name: "Identity_1"
      op: "Identity"
      input: "args_1"
      input: "^random_flip_left_right"
      input: "^resize_image_with_crop_or_pad/pad_to_bounding_box/assert_positive/assert_less/Assert/Assert"
      input: "^resize_image_with_crop_or_pad/pad_to_bounding_box/Assert_3/Assert"
      input: "^resize_image_with_crop_or_pad/crop_to_bounding_box/Assert_2/Assert"
      input: "^resize_image_with_crop_or_pad/crop_to_bounding_box/Assert_4/Assert"
      input: "^resize_image_with_crop_or_pad/pad_to_bounding_box/Assert_2/Assert"
      input: "^resize_image_with_crop_or_pad/crop_to_bounding_box/assert_positive/assert_less/Assert/Assert"
      input: "^resize_image_with_crop_or_pad/crop_to_bounding_box/assert_greater_equal/Assert/Assert"
      input: "^resize_image_with_crop_or_pad/assert_positive/assert_less/Assert/Assert"
      input: "^resize_image_with_crop_or_pad/crop_to_bounding_box/Assert_1/Assert"
      input: "^resize_image_with_crop_or_pad/crop_to_bounding_box/Assert/Assert"
      input: "^random_crop/Assert/Assert"
      input: "^resize_image_with_crop_or_pad/crop_to_bounding_box/Assert_3/Assert"
      input: "^resize_image_with_crop_or_pad/pad_to_bounding_box/Assert/Assert"
      input: "^resize_image_with_crop_or_pad/assert_greater_equal/Assert/Assert"
      input: "^resize_image_with_crop_or_pad/pad_to_bounding_box/assert_greater_equal/Assert/Assert"
      input: "^resize_image_with_crop_or_pad/pad_to_bounding_box/Assert_1/Assert"
      input: "^resize_image_with_crop_or_pad/crop_to_bounding_box/Assert_5/Assert"
      attr {
        key: "T"
        value {
          type: DT_INT32
        }
      }
      attr {
        key: "_output_shapes"
        value {
          list {
            shape {
            }
          }
        }
      }
    }
    ret {
      key: "identity"
      value: "Identity:output:0"
    }
    ret {
      key: "identity_1"
      value: "Identity_1:output:0"
    }
    attr {
      key: "_input_shapes"
      value {
        list {
          shape {
            dim {
              size: -1
            }
            dim {
              size: -1
            }
            dim {
              size: 3
            }
          }
          shape {
          }
        }
      }
    }
    control_ret {
      key: "random_crop/Assert/Assert"
      value: "random_crop/Assert/Assert"
    }
    control_ret {
      key: "random_flip_left_right"
      value: "random_flip_left_right"
    }
    control_ret {
      key: "resize_image_with_crop_or_pad/assert_greater_equal/Assert/Assert"
      value: "resize_image_with_crop_or_pad/assert_greater_equal/Assert/Assert"
    }
    control_ret {
      key: "resize_image_with_crop_or_pad/assert_positive/assert_less/Assert/Assert"
      value: "resize_image_with_crop_or_pad/assert_positive/assert_less/Assert/Assert"
    }
    control_ret {
      key: "resize_image_with_crop_or_pad/crop_to_bounding_box/Assert/Assert"
      value: "resize_image_with_crop_or_pad/crop_to_bounding_box/Assert/Assert"
    }
    control_ret {
      key: "resize_image_with_crop_or_pad/crop_to_bounding_box/Assert_1/Assert"
      value: "resize_image_with_crop_or_pad/crop_to_bounding_box/Assert_1/Assert"
    }
    control_ret {
      key: "resize_image_with_crop_or_pad/crop_to_bounding_box/Assert_2/Assert"
      value: "resize_image_with_crop_or_pad/crop_to_bounding_box/Assert_2/Assert"
    }
    control_ret {
      key: "resize_image_with_crop_or_pad/crop_to_bounding_box/Assert_3/Assert"
      value: "resize_image_with_crop_or_pad/crop_to_bounding_box/Assert_3/Assert"
    }
    control_ret {
      key: "resize_image_with_crop_or_pad/crop_to_bounding_box/Assert_4/Assert"
      value: "resize_image_with_crop_or_pad/crop_to_bounding_box/Assert_4/Assert"
    }
    control_ret {
      key: "resize_image_with_crop_or_pad/crop_to_bounding_box/Assert_5/Assert"
      value: "resize_image_with_crop_or_pad/crop_to_bounding_box/Assert_5/Assert"
    }
    control_ret {
      key: "resize_image_with_crop_or_pad/crop_to_bounding_box/assert_greater_equal/Assert/Assert"
      value: "resize_image_with_crop_or_pad/crop_to_bounding_box/assert_greater_equal/Assert/Assert"
    }
    control_ret {
      key: "resize_image_with_crop_or_pad/crop_to_bounding_box/assert_positive/assert_less/Assert/Assert"
      value: "resize_image_with_crop_or_pad/crop_to_bounding_box/assert_positive/assert_less/Assert/Assert"
    }
    control_ret {
      key: "resize_image_with_crop_or_pad/pad_to_bounding_box/Assert/Assert"
      value: "resize_image_with_crop_or_pad/pad_to_bounding_box/Assert/Assert"
    }
    control_ret {
      key: "resize_image_with_crop_or_pad/pad_to_bounding_box/Assert_1/Assert"
      value: "resize_image_with_crop_or_pad/pad_to_bounding_box/Assert_1/Assert"
    }
    control_ret {
      key: "resize_image_with_crop_or_pad/pad_to_bounding_box/Assert_2/Assert"
      value: "resize_image_with_crop_or_pad/pad_to_bounding_box/Assert_2/Assert"
    }
    control_ret {
      key: "resize_image_with_crop_or_pad/pad_to_bounding_box/Assert_3/Assert"
      value: "resize_image_with_crop_or_pad/pad_to_bounding_box/Assert_3/Assert"
    }
    control_ret {
      key: "resize_image_with_crop_or_pad/pad_to_bounding_box/assert_greater_equal/Assert/Assert"
      value: "resize_image_with_crop_or_pad/pad_to_bounding_box/assert_greater_equal/Assert/Assert"
    }
    control_ret {
      key: "resize_image_with_crop_or_pad/pad_to_bounding_box/assert_positive/assert_less/Assert/Assert"
      value: "resize_image_with_crop_or_pad/pad_to_bounding_box/assert_positive/assert_less/Assert/Assert"
    }
    arg_attr {
      value {
        attr {
          key: "_user_specified_name"
          value {
            s: "args_0"
          }
        }
      }
    }
    arg_attr {
      key: 1
      value {
        attr {
          key: "_user_specified_name"
          value {
            s: "args_1"
          }
        }
      }
    }
  }
  function {
    signature {
      name: "random_flip_left_right_true_52048"
      input_arg {
        name: "reversev2_random_flip_left_right_control_dependency"
        type: DT_FLOAT
      }
      output_arg {
        name: "identity"
        type: DT_FLOAT
      }
    }
    node_def {
      name: "ReverseV2/axis"
      op: "Const"
      attr {
        key: "_output_shapes"
        value {
          list {
            shape {
              dim {
                size: 1
              }
            }
          }
        }
      }
      attr {
        key: "dtype"
        value {
          type: DT_INT32
        }
      }
      attr {
        key: "value"
        value {
          tensor {
            dtype: DT_INT32
            tensor_shape {
              dim {
                size: 1
              }
            }
            int_val: 1
          }
        }
      }
    }
    node_def {
      name: "ReverseV2"
      op: "ReverseV2"
      input: "reversev2_random_flip_left_right_control_dependency"
      input: "ReverseV2/axis:output:0"
      attr {
        key: "T"
        value {
          type: DT_FLOAT
        }
      }
      attr {
        key: "Tidx"
        value {
          type: DT_INT32
        }
      }
      attr {
        key: "_output_shapes"
        value {
          list {
            shape {
              dim {
                size: 28
              }
              dim {
                size: 28
              }
              dim {
                size: 3
              }
            }
          }
        }
      }
    }
    node_def {
      name: "Identity"
      op: "Identity"
      input: "ReverseV2:output:0"
      attr {
        key: "T"
        value {
          type: DT_FLOAT
        }
      }
      attr {
        key: "_output_shapes"
        value {
          list {
            shape {
              dim {
                size: 28
              }
              dim {
                size: 28
              }
              dim {
                size: 3
              }
            }
          }
        }
      }
    }
    ret {
      key: "identity"
      value: "Identity:output:0"
    }
    attr {
      key: "_input_shapes"
      value {
        list {
          shape {
            dim {
              size: 28
            }
            dim {
              size: 28
            }
            dim {
              size: 3
            }
          }
        }
      }
    }
    arg_attr {
      value {
      }
    }
  }
}
versions {
  producer: 38
  min_consumer: 12
}
